{"convertedBy": "TensorFlow.js Converter v1.7.2", "generatedBy": "1.15.0", "modelTopology": {"versions": {"producer": 134}, "node": [{"op": "Placeholder", "name": "myInput", "attr": {"shape": {"shape": {"dim": [{"size": "-1"}, {"size": "15"}, {"size": "8"}]}}, "dtype": {"type": "DT_FLOAT"}}}, {"op": "Const", "name": "Const", "attr": {"dtype": {"type": "DT_INT32"}, "value": {"tensor": {"tensorShape": {"dim": [{"size": "3"}]}, "dtype": "DT_INT32"}}}}, {"op": "Const", "name": "Const_1", "attr": {"dtype": {"type": "DT_INT32"}, "value": {"tensor": {"tensorShape": {"dim": [{"size": "3"}]}, "dtype": "DT_INT32"}}}}, {"op": "Const", "name": "Const_5", "attr": {"dtype": {"type": "DT_INT32"}, "value": {"tensor": {"tensorShape": {"dim": [{"size": "3"}]}, "dtype": "DT_INT32"}}}}, {"op": "Const", "name": "transpose/perm", "attr": {"dtype": {"type": "DT_INT32"}, "value": {"tensor": {"tensorShape": {"dim": [{"size": "3"}]}, "dtype": "DT_INT32"}}}}, {"op": "Const", "name": "concat_10", "attr": {"dtype": {"type": "DT_FLOAT"}, "value": {"tensor": {"tensorShape": {"dim": [{"size": "2"}, {"size": "128"}, {"size": "5"}]}, "dtype": "DT_FLOAT"}}}}, {"op": "Const", "name": "concat_11", "attr": {"dtype": {"type": "DT_FLOAT"}, "value": {"tensor": {"tensorShape": {"dim": [{"size": "2"}, {"size": "128"}, {"size": "32"}]}, "dtype": "DT_FLOAT"}}}}, {"op": "Const", "name": "concat_12", "attr": {"dtype": {"type": "DT_FLOAT"}, "value": {"tensor": {"tensorShape": {"dim": [{"size": "2"}, {"size": "256"}]}, "dtype": "DT_FLOAT"}}}}, {"op": "Const", "name": "LSTM_9539a08e/strided_slice", "attr": {"dtype": {"type": "DT_FLOAT"}, "value": {"tensor": {"tensorShape": {"dim": [{"size": "1"}, {"size": "32"}]}, "dtype": "DT_FLOAT"}}}}, {"op": "Const", "name": "LSTM_9539a08e/bidirectional_rnn/fw/fw/strided_slice", "attr": {"dtype": {"type": "DT_INT32"}, "value": {"tensor": {"tensorShape": {}, "dtype": "DT_INT32"}}}}, {"op": "Const", "name": "LSTM_9539a08e/bidirectional_rnn/fw/fw/time", "attr": {"dtype": {"type": "DT_INT32"}, "value": {"tensor": {"tensorShape": {}, "dtype": "DT_INT32"}}}}, {"op": "Const", "name": "LSTM_9539a08e/bidirectional_rnn/fw/fw/TensorArrayUnstack/range", "attr": {"dtype": {"type": "DT_INT32"}, "value": {"tensor": {"tensorShape": {"dim": [{"size": "15"}]}, "dtype": "DT_INT32"}}}}, {"op": "Const", "name": "mul_7", "attr": {"dtype": {"type": "DT_FLOAT"}, "value": {"tensor": {"tensorShape": {"dim": [{"size": "128"}]}, "dtype": "DT_FLOAT"}}}}, {"op": "Const", "name": "LSTM_24ab71e5/ReverseV2/axis", "attr": {"dtype": {"type": "DT_INT32"}, "value": {"tensor": {"tensorShape": {"dim": [{"size": "1"}]}, "dtype": "DT_INT32"}}}}, {"op": "Const", "name": "transpose_22", "attr": {"dtype": {"type": "DT_FLOAT"}, "value": {"tensor": {"tensorShape": {"dim": [{"size": "128"}, {"size": "6"}]}, "dtype": "DT_FLOAT"}}}}, {"op": "Const", "name": "mul_9", "attr": {"dtype": {"type": "DT_FLOAT"}, "value": {"tensor": {"tensorShape": {"dim": [{"size": "6"}]}, "dtype": "DT_FLOAT"}}}}, {"op": "Const", "name": "ExpandDims_30/dim", "attr": {"dtype": {"type": "DT_INT32"}, "value": {"tensor": {"tensorShape": {}, "dtype": "DT_INT32"}}}}, {"op": "Const", "name": "transpose_18/perm", "attr": {"dtype": {"type": "DT_INT32"}, "value": {"tensor": {"tensorShape": {"dim": [{"size": "4"}]}, "dtype": "DT_INT32"}}}}, {"op": "Const", "name": "Const_158", "attr": {"dtype": {"type": "DT_INT64"}, "value": {"tensor": {"tensorShape": {"dim": [{"size": "3"}]}, "dtype": "DT_INT64"}}}}, {"op": "Const", "name": "Squeeze_13", "attr": {"dtype": {"type": "DT_INT64"}, "value": {"tensor": {"tensorShape": {"dim": [{"size": "2"}]}, "dtype": "DT_INT64"}}}}, {"op": "Const", "name": "GatherV2_5", "attr": {"dtype": {"type": "DT_INT64"}, "value": {"tensor": {"tensorShape": {"dim": [{"size": "2"}]}, "dtype": "DT_INT64"}}}}, {"op": "Const", "name": "Cast_1", "attr": {"dtype": {"type": "DT_INT64"}, "value": {"tensor": {"tensorShape": {"dim": [{"size": "1"}]}, "dtype": "DT_INT64"}}}}, {"op": "Const", "name": "SparseToDense_1/default_value", "attr": {"dtype": {"type": "DT_INT64"}, "value": {"tensor": {"tensorShape": {}, "dtype": "DT_INT64"}}}}, {"op": "Const", "name": "Const_162", "attr": {"dtype": {"type": "DT_INT64"}, "value": {"tensor": {"tensorShape": {}, "dtype": "DT_INT64"}}}}, {"op": "Const", "name": "concat_38", "attr": {"dtype": {"type": "DT_FLOAT"}, "value": {"tensor": {"tensorShape": {"dim": [{"size": "2"}, {"size": "128"}, {"size": "64"}]}, "dtype": "DT_FLOAT"}}}}, {"op": "Const", "name": "concat_39", "attr": {"dtype": {"type": "DT_FLOAT"}, "value": {"tensor": {"tensorShape": {"dim": [{"size": "2"}, {"size": "128"}, {"size": "32"}]}, "dtype": "DT_FLOAT"}}}}, {"op": "Const", "name": "concat_40", "attr": {"dtype": {"type": "DT_FLOAT"}, "value": {"tensor": {"tensorShape": {"dim": [{"size": "2"}, {"size": "256"}]}, "dtype": "DT_FLOAT"}}}}, {"op": "Const", "name": "Const_163", "attr": {"dtype": {"type": "DT_INT32"}, "value": {"tensor": {"tensorShape": {"dim": [{"size": "2"}]}, "dtype": "DT_INT32"}}}}, {"op": "Const", "name": "Const_164", "attr": {"dtype": {"type": "DT_INT32"}, "value": {"tensor": {"tensorShape": {"dim": [{"size": "2"}]}, "dtype": "DT_INT32"}}}}, {"op": "Const", "name": "transpose_20", "attr": {"dtype": {"type": "DT_FLOAT"}, "value": {"tensor": {"tensorShape": {"dim": [{"size": "3"}, {"size": "32"}]}, "dtype": "DT_FLOAT"}}}}, {"op": "Const", "name": "mul_5", "attr": {"dtype": {"type": "DT_FLOAT"}, "value": {"tensor": {"tensorShape": {"dim": [{"size": "32"}]}, "dtype": "DT_FLOAT"}}}}, {"op": "Const", "name": "transpose_21", "attr": {"dtype": {"type": "DT_FLOAT"}, "value": {"tensor": {"tensorShape": {"dim": [{"size": "992"}, {"size": "128"}]}, "dtype": "DT_FLOAT"}}}}, {"op": "Const", "name": "Reshape_2/shape", "attr": {"dtype": {"type": "DT_INT32"}, "value": {"tensor": {"tensorShape": {"dim": [{"size": "2"}]}, "dtype": "DT_INT32"}}}}, {"op": "Slice", "name": "Slice", "input": ["myInput", "Const", "Const_1"], "attr": {"Index": {"type": "DT_INT32"}, "T": {"type": "DT_FLOAT"}}}, {"op": "Enter", "name": "split/Enter", "input": ["concat_10"], "attr": {"parallel_iterations": {"i": "32"}, "frame_name": {"s": "TFNUTV85NTM5YTA4ZS9iaWRpcmVjdGlvbmFsX3Jubi9mdy9mdy93aGlsZS93aGlsZV9jb250ZXh0"}, "T": {"type": "DT_FLOAT"}, "is_constant": {"b": true}}}, {"op": "Enter", "name": "split_8/Enter", "input": ["concat_10"], "attr": {"parallel_iterations": {"i": "32"}, "frame_name": {"s": "TFNUTV85NTM5YTA4ZS9iaWRpcmVjdGlvbmFsX3Jubi9idy9idy93aGlsZS93aGlsZV9jb250ZXh0"}, "T": {"type": "DT_FLOAT"}, "is_constant": {"b": true}}}, {"op": "Enter", "name": "split_1/Enter", "input": ["concat_11"], "attr": {"parallel_iterations": {"i": "32"}, "frame_name": {"s": "TFNUTV85NTM5YTA4ZS9iaWRpcmVjdGlvbmFsX3Jubi9mdy9mdy93aGlsZS93aGlsZV9jb250ZXh0"}, "T": {"type": "DT_FLOAT"}, "is_constant": {"b": true}}}, {"op": "Enter", "name": "split_9/Enter", "input": ["concat_11"], "attr": {"parallel_iterations": {"i": "32"}, "frame_name": {"s": "TFNUTV85NTM5YTA4ZS9iaWRpcmVjdGlvbmFsX3Jubi9idy9idy93aGlsZS93aGlsZV9jb250ZXh0"}, "T": {"type": "DT_FLOAT"}, "is_constant": {"b": true}}}, {"op": "Enter", "name": "split_4/Enter", "input": ["concat_12"], "attr": {"parallel_iterations": {"i": "32"}, "frame_name": {"s": "TFNUTV85NTM5YTA4ZS9iaWRpcmVjdGlvbmFsX3Jubi9mdy9mdy93aGlsZS93aGlsZV9jb250ZXh0"}, "T": {"type": "DT_FLOAT"}, "is_constant": {"b": true}}}, {"op": "Enter", "name": "split_12/Enter", "input": ["concat_12"], "attr": {"parallel_iterations": {"i": "32"}, "frame_name": {"s": "TFNUTV85NTM5YTA4ZS9iaWRpcmVjdGlvbmFsX3Jubi9idy9idy93aGlsZS93aGlsZV9jb250ZXh0"}, "T": {"type": "DT_FLOAT"}, "is_constant": {"b": true}}}, {"op": "Enter", "name": "LSTM_9539a08e/bidirectional_rnn/fw/fw/while/Enter_3", "input": ["LSTM_9539a08e/strided_slice"], "attr": {"parallel_iterations": {"i": "32"}, "frame_name": {"s": "TFNUTV85NTM5YTA4ZS9iaWRpcmVjdGlvbmFsX3Jubi9mdy9mdy93aGlsZS93aGlsZV9jb250ZXh0"}, "T": {"type": "DT_FLOAT"}, "is_constant": {"b": false}}}, {"op": "Enter", "name": "LSTM_9539a08e/bidirectional_rnn/fw/fw/while/Enter_4", "input": ["LSTM_9539a08e/strided_slice"], "attr": {"parallel_iterations": {"i": "32"}, "frame_name": {"s": "TFNUTV85NTM5YTA4ZS9iaWRpcmVjdGlvbmFsX3Jubi9mdy9mdy93aGlsZS93aGlsZV9jb250ZXh0"}, "T": {"type": "DT_FLOAT"}, "is_constant": {"b": false}}}, {"op": "Enter", "name": "LSTM_9539a08e/bidirectional_rnn/bw/bw/while/Enter_3", "input": ["LSTM_9539a08e/strided_slice"], "attr": {"parallel_iterations": {"i": "32"}, "frame_name": {"s": "TFNUTV85NTM5YTA4ZS9iaWRpcmVjdGlvbmFsX3Jubi9idy9idy93aGlsZS93aGlsZV9jb250ZXh0"}, "T": {"type": "DT_FLOAT"}, "is_constant": {"b": false}}}, {"op": "Enter", "name": "LSTM_9539a08e/bidirectional_rnn/bw/bw/while/Enter_4", "input": ["LSTM_9539a08e/strided_slice"], "attr": {"parallel_iterations": {"i": "32"}, "frame_name": {"s": "TFNUTV85NTM5YTA4ZS9iaWRpcmVjdGlvbmFsX3Jubi9idy9idy93aGlsZS93aGlsZV9jb250ZXh0"}, "T": {"type": "DT_FLOAT"}, "is_constant": {"b": false}}}, {"op": "Enter", "name": "LSTM_24ab71e5/bidirectional_rnn/fw/fw/while/Enter_3", "input": ["LSTM_9539a08e/strided_slice"], "attr": {"parallel_iterations": {"i": "32"}, "frame_name": {"s": "TFNUTV8yNGFiNzFlNS9iaWRpcmVjdGlvbmFsX3Jubi9mdy9mdy93aGlsZS93aGlsZV9jb250ZXh0"}, "T": {"type": "DT_FLOAT"}, "is_constant": {"b": false}}}, {"op": "Enter", "name": "LSTM_24ab71e5/bidirectional_rnn/fw/fw/while/Enter_4", "input": ["LSTM_9539a08e/strided_slice"], "attr": {"parallel_iterations": {"i": "32"}, "frame_name": {"s": "TFNUTV8yNGFiNzFlNS9iaWRpcmVjdGlvbmFsX3Jubi9mdy9mdy93aGlsZS93aGlsZV9jb250ZXh0"}, "T": {"type": "DT_FLOAT"}, "is_constant": {"b": false}}}, {"op": "Enter", "name": "LSTM_24ab71e5/bidirectional_rnn/bw/bw/while/Enter_3", "input": ["LSTM_9539a08e/strided_slice"], "attr": {"parallel_iterations": {"i": "32"}, "frame_name": {"s": "TFNUTV8yNGFiNzFlNS9iaWRpcmVjdGlvbmFsX3Jubi9idy9idy93aGlsZS93aGlsZV9jb250ZXh0"}, "T": {"type": "DT_FLOAT"}, "is_constant": {"b": false}}}, {"op": "Enter", "name": "LSTM_24ab71e5/bidirectional_rnn/bw/bw/while/Enter_4", "input": ["LSTM_9539a08e/strided_slice"], "attr": {"parallel_iterations": {"i": "32"}, "frame_name": {"s": "TFNUTV8yNGFiNzFlNS9iaWRpcmVjdGlvbmFsX3Jubi9idy9idy93aGlsZS93aGlsZV9jb250ZXh0"}, "T": {"type": "DT_FLOAT"}, "is_constant": {"b": false}}}, {"op": "TensorArrayV3", "name": "LSTM_9539a08e/bidirectional_rnn/fw/fw/TensorArray", "input": ["LSTM_9539a08e/bidirectional_rnn/fw/fw/strided_slice"], "attr": {"element_shape": {"shape": {"dim": [{"size": "1"}, {"size": "32"}]}}, "dynamic_size": {"b": false}, "identical_element_shapes": {"b": true}, "clear_after_read": {"b": true}, "dtype": {"type": "DT_FLOAT"}, "tensor_array_name": {"s": "TFNUTV85NTM5YTA4ZS9iaWRpcmVjdGlvbmFsX3Jubi9mdy9mdy9keW5hbWljX3Jubi9vdXRwdXRfMA=="}}}, {"op": "TensorArrayV3", "name": "LSTM_9539a08e/bidirectional_rnn/fw/fw/TensorArray_1", "input": ["LSTM_9539a08e/bidirectional_rnn/fw/fw/strided_slice"], "attr": {"element_shape": {"shape": {"dim": [{"size": "1"}, {"size": "5"}]}}, "dynamic_size": {"b": false}, "identical_element_shapes": {"b": true}, "clear_after_read": {"b": true}, "dtype": {"type": "DT_FLOAT"}, "tensor_array_name": {"s": "TFNUTV85NTM5YTA4ZS9iaWRpcmVjdGlvbmFsX3Jubi9mdy9mdy9keW5hbWljX3Jubi9pbnB1dF8w"}}}, {"op": "Enter", "name": "LSTM_9539a08e/bidirectional_rnn/fw/fw/while/Less/Enter", "input": ["LSTM_9539a08e/bidirectional_rnn/fw/fw/strided_slice"], "attr": {"parallel_iterations": {"i": "32"}, "frame_name": {"s": "TFNUTV85NTM5YTA4ZS9iaWRpcmVjdGlvbmFsX3Jubi9mdy9mdy93aGlsZS93aGlsZV9jb250ZXh0"}, "T": {"type": "DT_INT32"}, "is_constant": {"b": true}}}, {"op": "Enter", "name": "LSTM_9539a08e/bidirectional_rnn/fw/fw/while/Less_1/Enter", "input": ["LSTM_9539a08e/bidirectional_rnn/fw/fw/strided_slice"], "attr": {"parallel_iterations": {"i": "32"}, "frame_name": {"s": "TFNUTV85NTM5YTA4ZS9iaWRpcmVjdGlvbmFsX3Jubi9mdy9mdy93aGlsZS93aGlsZV9jb250ZXh0"}, "T": {"type": "DT_INT32"}, "is_constant": {"b": true}}}, {"op": "TensorArrayV3", "name": "LSTM_9539a08e/bidirectional_rnn/bw/bw/TensorArray", "input": ["LSTM_9539a08e/bidirectional_rnn/fw/fw/strided_slice"], "attr": {"element_shape": {"shape": {"dim": [{"size": "1"}, {"size": "32"}]}}, "dynamic_size": {"b": false}, "identical_element_shapes": {"b": true}, "clear_after_read": {"b": true}, "dtype": {"type": "DT_FLOAT"}, "tensor_array_name": {"s": "TFNUTV85NTM5YTA4ZS9iaWRpcmVjdGlvbmFsX3Jubi9idy9idy9keW5hbWljX3Jubi9vdXRwdXRfMA=="}}}, {"op": "TensorArrayV3", "name": "LSTM_9539a08e/bidirectional_rnn/bw/bw/TensorArray_1", "input": ["LSTM_9539a08e/bidirectional_rnn/fw/fw/strided_slice"], "attr": {"element_shape": {"shape": {"dim": [{"size": "1"}, {"size": "5"}]}}, "dynamic_size": {"b": false}, "identical_element_shapes": {"b": true}, "clear_after_read": {"b": true}, "dtype": {"type": "DT_FLOAT"}, "tensor_array_name": {"s": "TFNUTV85NTM5YTA4ZS9iaWRpcmVjdGlvbmFsX3Jubi9idy9idy9keW5hbWljX3Jubi9pbnB1dF8w"}}}, {"op": "Enter", "name": "LSTM_9539a08e/bidirectional_rnn/bw/bw/while/Less/Enter", "input": ["LSTM_9539a08e/bidirectional_rnn/fw/fw/strided_slice"], "attr": {"parallel_iterations": {"i": "32"}, "frame_name": {"s": "TFNUTV85NTM5YTA4ZS9iaWRpcmVjdGlvbmFsX3Jubi9idy9idy93aGlsZS93aGlsZV9jb250ZXh0"}, "T": {"type": "DT_INT32"}, "is_constant": {"b": true}}}, {"op": "Enter", "name": "LSTM_9539a08e/bidirectional_rnn/bw/bw/while/Less_1/Enter", "input": ["LSTM_9539a08e/bidirectional_rnn/fw/fw/strided_slice"], "attr": {"parallel_iterations": {"i": "32"}, "frame_name": {"s": "TFNUTV85NTM5YTA4ZS9iaWRpcmVjdGlvbmFsX3Jubi9idy9idy93aGlsZS93aGlsZV9jb250ZXh0"}, "T": {"type": "DT_INT32"}, "is_constant": {"b": true}}}, {"op": "TensorArrayV3", "name": "LSTM_24ab71e5/bidirectional_rnn/fw/fw/TensorArray", "input": ["LSTM_9539a08e/bidirectional_rnn/fw/fw/strided_slice"], "attr": {"element_shape": {"shape": {"dim": [{"size": "1"}, {"size": "32"}]}}, "dynamic_size": {"b": false}, "identical_element_shapes": {"b": true}, "clear_after_read": {"b": true}, "dtype": {"type": "DT_FLOAT"}, "tensor_array_name": {"s": "TFNUTV8yNGFiNzFlNS9iaWRpcmVjdGlvbmFsX3Jubi9mdy9mdy9keW5hbWljX3Jubi9vdXRwdXRfMA=="}}}, {"op": "TensorArrayV3", "name": "LSTM_24ab71e5/bidirectional_rnn/fw/fw/TensorArray_1", "input": ["LSTM_9539a08e/bidirectional_rnn/fw/fw/strided_slice"], "attr": {"element_shape": {"shape": {"dim": [{"size": "1"}, {"size": "64"}]}}, "dynamic_size": {"b": false}, "identical_element_shapes": {"b": true}, "clear_after_read": {"b": true}, "dtype": {"type": "DT_FLOAT"}, "tensor_array_name": {"s": "TFNUTV8yNGFiNzFlNS9iaWRpcmVjdGlvbmFsX3Jubi9mdy9mdy9keW5hbWljX3Jubi9pbnB1dF8w"}}}, {"op": "Enter", "name": "LSTM_24ab71e5/bidirectional_rnn/fw/fw/while/Less/Enter", "input": ["LSTM_9539a08e/bidirectional_rnn/fw/fw/strided_slice"], "attr": {"parallel_iterations": {"i": "32"}, "frame_name": {"s": "TFNUTV8yNGFiNzFlNS9iaWRpcmVjdGlvbmFsX3Jubi9mdy9mdy93aGlsZS93aGlsZV9jb250ZXh0"}, "T": {"type": "DT_INT32"}, "is_constant": {"b": true}}}, {"op": "Enter", "name": "LSTM_24ab71e5/bidirectional_rnn/fw/fw/while/Less_1/Enter", "input": ["LSTM_9539a08e/bidirectional_rnn/fw/fw/strided_slice"], "attr": {"parallel_iterations": {"i": "32"}, "frame_name": {"s": "TFNUTV8yNGFiNzFlNS9iaWRpcmVjdGlvbmFsX3Jubi9mdy9mdy93aGlsZS93aGlsZV9jb250ZXh0"}, "T": {"type": "DT_INT32"}, "is_constant": {"b": true}}}, {"op": "TensorArrayV3", "name": "LSTM_24ab71e5/bidirectional_rnn/bw/bw/TensorArray", "input": ["LSTM_9539a08e/bidirectional_rnn/fw/fw/strided_slice"], "attr": {"element_shape": {"shape": {"dim": [{"size": "1"}, {"size": "32"}]}}, "dynamic_size": {"b": false}, "identical_element_shapes": {"b": true}, "clear_after_read": {"b": true}, "dtype": {"type": "DT_FLOAT"}, "tensor_array_name": {"s": "TFNUTV8yNGFiNzFlNS9iaWRpcmVjdGlvbmFsX3Jubi9idy9idy9keW5hbWljX3Jubi9vdXRwdXRfMA=="}}}, {"op": "TensorArrayV3", "name": "LSTM_24ab71e5/bidirectional_rnn/bw/bw/TensorArray_1", "input": ["LSTM_9539a08e/bidirectional_rnn/fw/fw/strided_slice"], "attr": {"element_shape": {"shape": {"dim": [{"size": "1"}, {"size": "64"}]}}, "dynamic_size": {"b": false}, "identical_element_shapes": {"b": true}, "clear_after_read": {"b": true}, "dtype": {"type": "DT_FLOAT"}, "tensor_array_name": {"s": "TFNUTV8yNGFiNzFlNS9iaWRpcmVjdGlvbmFsX3Jubi9idy9idy9keW5hbWljX3Jubi9pbnB1dF8w"}}}, {"op": "Enter", "name": "LSTM_24ab71e5/bidirectional_rnn/bw/bw/while/Less/Enter", "input": ["LSTM_9539a08e/bidirectional_rnn/fw/fw/strided_slice"], "attr": {"parallel_iterations": {"i": "32"}, "frame_name": {"s": "TFNUTV8yNGFiNzFlNS9iaWRpcmVjdGlvbmFsX3Jubi9idy9idy93aGlsZS93aGlsZV9jb250ZXh0"}, "T": {"type": "DT_INT32"}, "is_constant": {"b": true}}}, {"op": "Enter", "name": "LSTM_24ab71e5/bidirectional_rnn/bw/bw/while/Less_1/Enter", "input": ["LSTM_9539a08e/bidirectional_rnn/fw/fw/strided_slice"], "attr": {"parallel_iterations": {"i": "32"}, "frame_name": {"s": "TFNUTV8yNGFiNzFlNS9iaWRpcmVjdGlvbmFsX3Jubi9idy9idy93aGlsZS93aGlsZV9jb250ZXh0"}, "T": {"type": "DT_INT32"}, "is_constant": {"b": true}}}, {"op": "Enter", "name": "LSTM_9539a08e/bidirectional_rnn/fw/fw/while/Enter_1", "input": ["LSTM_9539a08e/bidirectional_rnn/fw/fw/time"], "attr": {"parallel_iterations": {"i": "32"}, "frame_name": {"s": "TFNUTV85NTM5YTA4ZS9iaWRpcmVjdGlvbmFsX3Jubi9mdy9mdy93aGlsZS93aGlsZV9jb250ZXh0"}, "T": {"type": "DT_INT32"}, "is_constant": {"b": false}}}, {"op": "Enter", "name": "LSTM_9539a08e/bidirectional_rnn/fw/fw/while/Enter", "input": ["LSTM_9539a08e/bidirectional_rnn/fw/fw/time"], "attr": {"parallel_iterations": {"i": "32"}, "frame_name": {"s": "TFNUTV85NTM5YTA4ZS9iaWRpcmVjdGlvbmFsX3Jubi9mdy9mdy93aGlsZS93aGlsZV9jb250ZXh0"}, "T": {"type": "DT_INT32"}, "is_constant": {"b": false}}}, {"op": "Enter", "name": "LSTM_9539a08e/bidirectional_rnn/bw/bw/while/Enter_1", "input": ["LSTM_9539a08e/bidirectional_rnn/fw/fw/time"], "attr": {"parallel_iterations": {"i": "32"}, "frame_name": {"s": "TFNUTV85NTM5YTA4ZS9iaWRpcmVjdGlvbmFsX3Jubi9idy9idy93aGlsZS93aGlsZV9jb250ZXh0"}, "T": {"type": "DT_INT32"}, "is_constant": {"b": false}}}, {"op": "Enter", "name": "LSTM_9539a08e/bidirectional_rnn/bw/bw/while/Enter", "input": ["LSTM_9539a08e/bidirectional_rnn/fw/fw/time"], "attr": {"parallel_iterations": {"i": "32"}, "frame_name": {"s": "TFNUTV85NTM5YTA4ZS9iaWRpcmVjdGlvbmFsX3Jubi9idy9idy93aGlsZS93aGlsZV9jb250ZXh0"}, "T": {"type": "DT_INT32"}, "is_constant": {"b": false}}}, {"op": "Enter", "name": "LSTM_24ab71e5/bidirectional_rnn/fw/fw/while/Enter_1", "input": ["LSTM_9539a08e/bidirectional_rnn/fw/fw/time"], "attr": {"parallel_iterations": {"i": "32"}, "frame_name": {"s": "TFNUTV8yNGFiNzFlNS9iaWRpcmVjdGlvbmFsX3Jubi9mdy9mdy93aGlsZS93aGlsZV9jb250ZXh0"}, "T": {"type": "DT_INT32"}, "is_constant": {"b": false}}}, {"op": "Enter", "name": "LSTM_24ab71e5/bidirectional_rnn/fw/fw/while/Enter", "input": ["LSTM_9539a08e/bidirectional_rnn/fw/fw/time"], "attr": {"parallel_iterations": {"i": "32"}, "frame_name": {"s": "TFNUTV8yNGFiNzFlNS9iaWRpcmVjdGlvbmFsX3Jubi9mdy9mdy93aGlsZS93aGlsZV9jb250ZXh0"}, "T": {"type": "DT_INT32"}, "is_constant": {"b": false}}}, {"op": "Enter", "name": "LSTM_24ab71e5/bidirectional_rnn/bw/bw/while/Enter_1", "input": ["LSTM_9539a08e/bidirectional_rnn/fw/fw/time"], "attr": {"parallel_iterations": {"i": "32"}, "frame_name": {"s": "TFNUTV8yNGFiNzFlNS9iaWRpcmVjdGlvbmFsX3Jubi9idy9idy93aGlsZS93aGlsZV9jb250ZXh0"}, "T": {"type": "DT_INT32"}, "is_constant": {"b": false}}}, {"op": "Enter", "name": "LSTM_24ab71e5/bidirectional_rnn/bw/bw/while/Enter", "input": ["LSTM_9539a08e/bidirectional_rnn/fw/fw/time"], "attr": {"parallel_iterations": {"i": "32"}, "frame_name": {"s": "TFNUTV8yNGFiNzFlNS9iaWRpcmVjdGlvbmFsX3Jubi9idy9idy93aGlsZS93aGlsZV9jb250ZXh0"}, "T": {"type": "DT_INT32"}, "is_constant": {"b": false}}}, {"op": "SparseToDense", "name": "SparseToDense_1", "input": ["Squeeze_13", "Cast_1", "GatherV2_5", "SparseToDense_1/default_value"], "attr": {"Tindices": {"type": "DT_INT64"}, "T": {"type": "DT_INT64"}, "validate_indices": {"b": true}}}, {"op": "Enter", "name": "split_16/Enter", "input": ["concat_38"], "attr": {"parallel_iterations": {"i": "32"}, "frame_name": {"s": "TFNUTV8yNGFiNzFlNS9iaWRpcmVjdGlvbmFsX3Jubi9mdy9mdy93aGlsZS93aGlsZV9jb250ZXh0"}, "T": {"type": "DT_FLOAT"}, "is_constant": {"b": true}}}, {"op": "Enter", "name": "split_24/Enter", "input": ["concat_38"], "attr": {"parallel_iterations": {"i": "32"}, "frame_name": {"s": "TFNUTV8yNGFiNzFlNS9iaWRpcmVjdGlvbmFsX3Jubi9idy9idy93aGlsZS93aGlsZV9jb250ZXh0"}, "T": {"type": "DT_FLOAT"}, "is_constant": {"b": true}}}, {"op": "Enter", "name": "split_17/Enter", "input": ["concat_39"], "attr": {"parallel_iterations": {"i": "32"}, "frame_name": {"s": "TFNUTV8yNGFiNzFlNS9iaWRpcmVjdGlvbmFsX3Jubi9mdy9mdy93aGlsZS93aGlsZV9jb250ZXh0"}, "T": {"type": "DT_FLOAT"}, "is_constant": {"b": true}}}, {"op": "Enter", "name": "split_25/Enter", "input": ["concat_39"], "attr": {"parallel_iterations": {"i": "32"}, "frame_name": {"s": "TFNUTV8yNGFiNzFlNS9iaWRpcmVjdGlvbmFsX3Jubi9idy9idy93aGlsZS93aGlsZV9jb250ZXh0"}, "T": {"type": "DT_FLOAT"}, "is_constant": {"b": true}}}, {"op": "Enter", "name": "split_20/Enter", "input": ["concat_40"], "attr": {"parallel_iterations": {"i": "32"}, "frame_name": {"s": "TFNUTV8yNGFiNzFlNS9iaWRpcmVjdGlvbmFsX3Jubi9mdy9mdy93aGlsZS93aGlsZV9jb250ZXh0"}, "T": {"type": "DT_FLOAT"}, "is_constant": {"b": true}}}, {"op": "Enter", "name": "split_28/Enter", "input": ["concat_40"], "attr": {"parallel_iterations": {"i": "32"}, "frame_name": {"s": "TFNUTV8yNGFiNzFlNS9iaWRpcmVjdGlvbmFsX3Jubi9idy9idy93aGlsZS93aGlsZV9jb250ZXh0"}, "T": {"type": "DT_FLOAT"}, "is_constant": {"b": true}}}, {"op": "Slice", "name": "Slice_2", "input": ["Slice", "Const", "Const_5"], "attr": {"Index": {"type": "DT_INT32"}, "T": {"type": "DT_FLOAT"}}}, {"op": "GatherV2", "name": "GatherV2_6", "input": ["Slice", "Const_162", "ExpandDims_30/dim"], "attr": {"Tindices": {"type": "DT_INT64"}, "batch_dims": {"i": "0"}, "Tparams": {"type": "DT_FLOAT"}, "Taxis": {"type": "DT_INT32"}}}, {"op": "Merge", "name": "LSTM_9539a08e/bidirectional_rnn/fw/fw/while/Merge_3", "input": ["LSTM_9539a08e/bidirectional_rnn/fw/fw/while/Enter_3", "LSTM_9539a08e/bidirectional_rnn/fw/fw/while/NextIteration_3"], "attr": {"N": {"i": "2"}, "T": {"type": "DT_FLOAT"}}}, {"op": "Merge", "name": "LSTM_9539a08e/bidirectional_rnn/fw/fw/while/Merge_4", "input": ["LSTM_9539a08e/bidirectional_rnn/fw/fw/while/Enter_4", "LSTM_9539a08e/bidirectional_rnn/fw/fw/while/NextIteration_4"], "attr": {"N": {"i": "2"}, "T": {"type": "DT_FLOAT"}}}, {"op": "Merge", "name": "LSTM_9539a08e/bidirectional_rnn/bw/bw/while/Merge_3", "input": ["LSTM_9539a08e/bidirectional_rnn/bw/bw/while/Enter_3", "LSTM_9539a08e/bidirectional_rnn/bw/bw/while/NextIteration_3"], "attr": {"N": {"i": "2"}, "T": {"type": "DT_FLOAT"}}}, {"op": "Merge", "name": "LSTM_9539a08e/bidirectional_rnn/bw/bw/while/Merge_4", "input": ["LSTM_9539a08e/bidirectional_rnn/bw/bw/while/Enter_4", "LSTM_9539a08e/bidirectional_rnn/bw/bw/while/NextIteration_4"], "attr": {"N": {"i": "2"}, "T": {"type": "DT_FLOAT"}}}, {"op": "Merge", "name": "LSTM_24ab71e5/bidirectional_rnn/fw/fw/while/Merge_3", "input": ["LSTM_24ab71e5/bidirectional_rnn/fw/fw/while/Enter_3", "LSTM_24ab71e5/bidirectional_rnn/fw/fw/while/NextIteration_3"], "attr": {"N": {"i": "2"}, "T": {"type": "DT_FLOAT"}}}, {"op": "Merge", "name": "LSTM_24ab71e5/bidirectional_rnn/fw/fw/while/Merge_4", "input": ["LSTM_24ab71e5/bidirectional_rnn/fw/fw/while/Enter_4", "LSTM_24ab71e5/bidirectional_rnn/fw/fw/while/NextIteration_4"], "attr": {"N": {"i": "2"}, "T": {"type": "DT_FLOAT"}}}, {"op": "Merge", "name": "LSTM_24ab71e5/bidirectional_rnn/bw/bw/while/Merge_3", "input": ["LSTM_24ab71e5/bidirectional_rnn/bw/bw/while/Enter_3", "LSTM_24ab71e5/bidirectional_rnn/bw/bw/while/NextIteration_3"], "attr": {"N": {"i": "2"}, "T": {"type": "DT_FLOAT"}}}, {"op": "Merge", "name": "LSTM_24ab71e5/bidirectional_rnn/bw/bw/while/Merge_4", "input": ["LSTM_24ab71e5/bidirectional_rnn/bw/bw/while/Enter_4", "LSTM_24ab71e5/bidirectional_rnn/bw/bw/while/NextIteration_4"], "attr": {"N": {"i": "2"}, "T": {"type": "DT_FLOAT"}}}, {"op": "Enter", "name": "LSTM_9539a08e/bidirectional_rnn/fw/fw/while/TensorArrayWrite/TensorArrayWriteV3/Enter", "input": ["LSTM_9539a08e/bidirectional_rnn/fw/fw/TensorArray"], "attr": {"parallel_iterations": {"i": "32"}, "frame_name": {"s": "TFNUTV85NTM5YTA4ZS9iaWRpcmVjdGlvbmFsX3Jubi9mdy9mdy93aGlsZS93aGlsZV9jb250ZXh0"}, "T": {"type": "DT_RESOURCE"}, "is_constant": {"b": true}}}, {"op": "Enter", "name": "LSTM_9539a08e/bidirectional_rnn/fw/fw/while/Enter_2", "input": ["LSTM_9539a08e/bidirectional_rnn/fw/fw/TensorArray:1"], "attr": {"parallel_iterations": {"i": "32"}, "frame_name": {"s": "TFNUTV85NTM5YTA4ZS9iaWRpcmVjdGlvbmFsX3Jubi9mdy9mdy93aGlsZS93aGlsZV9jb250ZXh0"}, "T": {"type": "DT_FLOAT"}, "is_constant": {"b": false}}}, {"op": "Enter", "name": "LSTM_9539a08e/bidirectional_rnn/fw/fw/while/TensorArrayReadV3/Enter", "input": ["LSTM_9539a08e/bidirectional_rnn/fw/fw/TensorArray_1"], "attr": {"parallel_iterations": {"i": "32"}, "frame_name": {"s": "TFNUTV85NTM5YTA4ZS9iaWRpcmVjdGlvbmFsX3Jubi9mdy9mdy93aGlsZS93aGlsZV9jb250ZXh0"}, "T": {"type": "DT_RESOURCE"}, "is_constant": {"b": true}}}, {"op": "Const", "name": "ConstantFolding/LSTM_9539a08e/bidirectional_rnn/fw/fw/strided_slice_enter", "input": ["^LSTM_9539a08e/bidirectional_rnn/fw/fw/while/Less/Enter"], "attr": {"dtype": {"type": "DT_INT32"}, "value": {"tensor": {"tensorShape": {}, "dtype": "DT_INT32"}}}}, {"op": "Const", "name": "ConstantFolding/LSTM_9539a08e/bidirectional_rnn/fw/fw/Minimum_enter", "input": ["^LSTM_9539a08e/bidirectional_rnn/fw/fw/while/Less_1/Enter"], "attr": {"dtype": {"type": "DT_INT32"}, "value": {"tensor": {"tensorShape": {}, "dtype": "DT_INT32"}}}}, {"op": "Enter", "name": "LSTM_9539a08e/bidirectional_rnn/bw/bw/while/TensorArrayWrite/TensorArrayWriteV3/Enter", "input": ["LSTM_9539a08e/bidirectional_rnn/bw/bw/TensorArray"], "attr": {"parallel_iterations": {"i": "32"}, "frame_name": {"s": "TFNUTV85NTM5YTA4ZS9iaWRpcmVjdGlvbmFsX3Jubi9idy9idy93aGlsZS93aGlsZV9jb250ZXh0"}, "T": {"type": "DT_RESOURCE"}, "is_constant": {"b": true}}}, {"op": "Enter", "name": "LSTM_9539a08e/bidirectional_rnn/bw/bw/while/Enter_2", "input": ["LSTM_9539a08e/bidirectional_rnn/bw/bw/TensorArray:1"], "attr": {"parallel_iterations": {"i": "32"}, "frame_name": {"s": "TFNUTV85NTM5YTA4ZS9iaWRpcmVjdGlvbmFsX3Jubi9idy9idy93aGlsZS93aGlsZV9jb250ZXh0"}, "T": {"type": "DT_FLOAT"}, "is_constant": {"b": false}}}, {"op": "Enter", "name": "LSTM_9539a08e/bidirectional_rnn/bw/bw/while/TensorArrayReadV3/Enter", "input": ["LSTM_9539a08e/bidirectional_rnn/bw/bw/TensorArray_1"], "attr": {"parallel_iterations": {"i": "32"}, "frame_name": {"s": "TFNUTV85NTM5YTA4ZS9iaWRpcmVjdGlvbmFsX3Jubi9idy9idy93aGlsZS93aGlsZV9jb250ZXh0"}, "T": {"type": "DT_RESOURCE"}, "is_constant": {"b": true}}}, {"op": "Const", "name": "ConstantFolding/LSTM_9539a08e/bidirectional_rnn/bw/bw/strided_slice_enter", "input": ["^LSTM_9539a08e/bidirectional_rnn/bw/bw/while/Less/Enter"], "attr": {"dtype": {"type": "DT_INT32"}, "value": {"tensor": {"tensorShape": {}, "dtype": "DT_INT32"}}}}, {"op": "Const", "name": "ConstantFolding/LSTM_9539a08e/bidirectional_rnn/bw/bw/Minimum_enter", "input": ["^LSTM_9539a08e/bidirectional_rnn/bw/bw/while/Less_1/Enter"], "attr": {"dtype": {"type": "DT_INT32"}, "value": {"tensor": {"tensorShape": {}, "dtype": "DT_INT32"}}}}, {"op": "Enter", "name": "LSTM_24ab71e5/bidirectional_rnn/fw/fw/while/TensorArrayWrite/TensorArrayWriteV3/Enter", "input": ["LSTM_24ab71e5/bidirectional_rnn/fw/fw/TensorArray"], "attr": {"parallel_iterations": {"i": "32"}, "frame_name": {"s": "TFNUTV8yNGFiNzFlNS9iaWRpcmVjdGlvbmFsX3Jubi9mdy9mdy93aGlsZS93aGlsZV9jb250ZXh0"}, "T": {"type": "DT_RESOURCE"}, "is_constant": {"b": true}}}, {"op": "Enter", "name": "LSTM_24ab71e5/bidirectional_rnn/fw/fw/while/Enter_2", "input": ["LSTM_24ab71e5/bidirectional_rnn/fw/fw/TensorArray:1"], "attr": {"parallel_iterations": {"i": "32"}, "frame_name": {"s": "TFNUTV8yNGFiNzFlNS9iaWRpcmVjdGlvbmFsX3Jubi9mdy9mdy93aGlsZS93aGlsZV9jb250ZXh0"}, "T": {"type": "DT_FLOAT"}, "is_constant": {"b": false}}}, {"op": "Enter", "name": "LSTM_24ab71e5/bidirectional_rnn/fw/fw/while/TensorArrayReadV3/Enter", "input": ["LSTM_24ab71e5/bidirectional_rnn/fw/fw/TensorArray_1"], "attr": {"parallel_iterations": {"i": "32"}, "frame_name": {"s": "TFNUTV8yNGFiNzFlNS9iaWRpcmVjdGlvbmFsX3Jubi9mdy9mdy93aGlsZS93aGlsZV9jb250ZXh0"}, "T": {"type": "DT_RESOURCE"}, "is_constant": {"b": true}}}, {"op": "Const", "name": "ConstantFolding/LSTM_24ab71e5/bidirectional_rnn/fw/fw/strided_slice_enter", "input": ["^LSTM_24ab71e5/bidirectional_rnn/fw/fw/while/Less/Enter"], "attr": {"dtype": {"type": "DT_INT32"}, "value": {"tensor": {"tensorShape": {}, "dtype": "DT_INT32"}}}}, {"op": "Const", "name": "ConstantFolding/LSTM_24ab71e5/bidirectional_rnn/fw/fw/Minimum_enter", "input": ["^LSTM_24ab71e5/bidirectional_rnn/fw/fw/while/Less_1/Enter"], "attr": {"dtype": {"type": "DT_INT32"}, "value": {"tensor": {"tensorShape": {}, "dtype": "DT_INT32"}}}}, {"op": "Enter", "name": "LSTM_24ab71e5/bidirectional_rnn/bw/bw/while/TensorArrayWrite/TensorArrayWriteV3/Enter", "input": ["LSTM_24ab71e5/bidirectional_rnn/bw/bw/TensorArray"], "attr": {"parallel_iterations": {"i": "32"}, "frame_name": {"s": "TFNUTV8yNGFiNzFlNS9iaWRpcmVjdGlvbmFsX3Jubi9idy9idy93aGlsZS93aGlsZV9jb250ZXh0"}, "T": {"type": "DT_RESOURCE"}, "is_constant": {"b": true}}}, {"op": "Enter", "name": "LSTM_24ab71e5/bidirectional_rnn/bw/bw/while/Enter_2", "input": ["LSTM_24ab71e5/bidirectional_rnn/bw/bw/TensorArray:1"], "attr": {"parallel_iterations": {"i": "32"}, "frame_name": {"s": "TFNUTV8yNGFiNzFlNS9iaWRpcmVjdGlvbmFsX3Jubi9idy9idy93aGlsZS93aGlsZV9jb250ZXh0"}, "T": {"type": "DT_FLOAT"}, "is_constant": {"b": false}}}, {"op": "Enter", "name": "LSTM_24ab71e5/bidirectional_rnn/bw/bw/while/TensorArrayReadV3/Enter", "input": ["LSTM_24ab71e5/bidirectional_rnn/bw/bw/TensorArray_1"], "attr": {"parallel_iterations": {"i": "32"}, "frame_name": {"s": "TFNUTV8yNGFiNzFlNS9iaWRpcmVjdGlvbmFsX3Jubi9idy9idy93aGlsZS93aGlsZV9jb250ZXh0"}, "T": {"type": "DT_RESOURCE"}, "is_constant": {"b": true}}}, {"op": "Const", "name": "ConstantFolding/LSTM_24ab71e5/bidirectional_rnn/bw/bw/strided_slice_enter", "input": ["^LSTM_24ab71e5/bidirectional_rnn/bw/bw/while/Less/Enter"], "attr": {"dtype": {"type": "DT_INT32"}, "value": {"tensor": {"tensorShape": {}, "dtype": "DT_INT32"}}}}, {"op": "Const", "name": "ConstantFolding/LSTM_24ab71e5/bidirectional_rnn/bw/bw/Minimum_enter", "input": ["^LSTM_24ab71e5/bidirectional_rnn/bw/bw/while/Less_1/Enter"], "attr": {"dtype": {"type": "DT_INT32"}, "value": {"tensor": {"tensorShape": {}, "dtype": "DT_INT32"}}}}, {"op": "Merge", "name": "LSTM_9539a08e/bidirectional_rnn/fw/fw/while/Merge_1", "input": ["LSTM_9539a08e/bidirectional_rnn/fw/fw/while/Enter_1", "LSTM_9539a08e/bidirectional_rnn/fw/fw/while/NextIteration_1"], "attr": {"N": {"i": "2"}, "T": {"type": "DT_INT32"}}}, {"op": "Merge", "name": "LSTM_9539a08e/bidirectional_rnn/fw/fw/while/Merge", "input": ["LSTM_9539a08e/bidirectional_rnn/fw/fw/while/Enter", "LSTM_9539a08e/bidirectional_rnn/fw/fw/while/NextIteration"], "attr": {"N": {"i": "2"}, "T": {"type": "DT_INT32"}}}, {"op": "Merge", "name": "LSTM_9539a08e/bidirectional_rnn/bw/bw/while/Merge_1", "input": ["LSTM_9539a08e/bidirectional_rnn/bw/bw/while/Enter_1", "LSTM_9539a08e/bidirectional_rnn/bw/bw/while/NextIteration_1"], "attr": {"N": {"i": "2"}, "T": {"type": "DT_INT32"}}}, {"op": "Merge", "name": "LSTM_9539a08e/bidirectional_rnn/bw/bw/while/Merge", "input": ["LSTM_9539a08e/bidirectional_rnn/bw/bw/while/Enter", "LSTM_9539a08e/bidirectional_rnn/bw/bw/while/NextIteration"], "attr": {"N": {"i": "2"}, "T": {"type": "DT_INT32"}}}, {"op": "Merge", "name": "LSTM_24ab71e5/bidirectional_rnn/fw/fw/while/Merge_1", "input": ["LSTM_24ab71e5/bidirectional_rnn/fw/fw/while/Enter_1", "LSTM_24ab71e5/bidirectional_rnn/fw/fw/while/NextIteration_1"], "attr": {"N": {"i": "2"}, "T": {"type": "DT_INT32"}}}, {"op": "Merge", "name": "LSTM_24ab71e5/bidirectional_rnn/fw/fw/while/Merge", "input": ["LSTM_24ab71e5/bidirectional_rnn/fw/fw/while/Enter", "LSTM_24ab71e5/bidirectional_rnn/fw/fw/while/NextIteration"], "attr": {"N": {"i": "2"}, "T": {"type": "DT_INT32"}}}, {"op": "Merge", "name": "LSTM_24ab71e5/bidirectional_rnn/bw/bw/while/Merge_1", "input": ["LSTM_24ab71e5/bidirectional_rnn/bw/bw/while/Enter_1", "LSTM_24ab71e5/bidirectional_rnn/bw/bw/while/NextIteration_1"], "attr": {"N": {"i": "2"}, "T": {"type": "DT_INT32"}}}, {"op": "Merge", "name": "LSTM_24ab71e5/bidirectional_rnn/bw/bw/while/Merge", "input": ["LSTM_24ab71e5/bidirectional_rnn/bw/bw/while/Enter", "LSTM_24ab71e5/bidirectional_rnn/bw/bw/while/NextIteration"], "attr": {"N": {"i": "2"}, "T": {"type": "DT_INT32"}}}, {"op": "AddV2", "name": "add_5", "input": ["Const_158", "SparseToDense_1"], "attr": {"T": {"type": "DT_INT64"}}}, {"op": "Transpose", "name": "transpose", "input": ["Slice_2", "transpose/perm"], "attr": {"T": {"type": "DT_FLOAT"}, "Tperm": {"type": "DT_INT32"}}}, {"op": "Slice", "name": "Slice_56", "input": ["GatherV2_6", "Const_163", "Const_164"], "attr": {"Index": {"type": "DT_INT32"}, "T": {"type": "DT_FLOAT"}}}, {"op": "Merge", "name": "LSTM_9539a08e/bidirectional_rnn/fw/fw/while/Merge_2", "input": ["LSTM_9539a08e/bidirectional_rnn/fw/fw/while/Enter_2", "LSTM_9539a08e/bidirectional_rnn/fw/fw/while/NextIteration_2"], "attr": {"N": {"i": "2"}, "T": {"type": "DT_FLOAT"}}}, {"op": "Merge", "name": "LSTM_9539a08e/bidirectional_rnn/bw/bw/while/Merge_2", "input": ["LSTM_9539a08e/bidirectional_rnn/bw/bw/while/Enter_2", "LSTM_9539a08e/bidirectional_rnn/bw/bw/while/NextIteration_2"], "attr": {"N": {"i": "2"}, "T": {"type": "DT_FLOAT"}}}, {"op": "Merge", "name": "LSTM_24ab71e5/bidirectional_rnn/fw/fw/while/Merge_2", "input": ["LSTM_24ab71e5/bidirectional_rnn/fw/fw/while/Enter_2", "LSTM_24ab71e5/bidirectional_rnn/fw/fw/while/NextIteration_2"], "attr": {"N": {"i": "2"}, "T": {"type": "DT_FLOAT"}}}, {"op": "Merge", "name": "LSTM_24ab71e5/bidirectional_rnn/bw/bw/while/Merge_2", "input": ["LSTM_24ab71e5/bidirectional_rnn/bw/bw/while/Enter_2", "LSTM_24ab71e5/bidirectional_rnn/bw/bw/while/NextIteration_2"], "attr": {"N": {"i": "2"}, "T": {"type": "DT_FLOAT"}}}, {"op": "Less", "name": "LSTM_9539a08e/bidirectional_rnn/fw/fw/while/Less_1", "input": ["LSTM_9539a08e/bidirectional_rnn/fw/fw/while/Merge_1", "ConstantFolding/LSTM_9539a08e/bidirectional_rnn/fw/fw/Minimum_enter"], "attr": {"T": {"type": "DT_INT32"}}}, {"op": "Less", "name": "LSTM_9539a08e/bidirectional_rnn/fw/fw/while/Less", "input": ["LSTM_9539a08e/bidirectional_rnn/fw/fw/while/Merge", "ConstantFolding/LSTM_9539a08e/bidirectional_rnn/fw/fw/strided_slice_enter"], "attr": {"T": {"type": "DT_INT32"}}}, {"op": "Less", "name": "LSTM_9539a08e/bidirectional_rnn/bw/bw/while/Less_1", "input": ["LSTM_9539a08e/bidirectional_rnn/bw/bw/while/Merge_1", "ConstantFolding/LSTM_9539a08e/bidirectional_rnn/bw/bw/Minimum_enter"], "attr": {"T": {"type": "DT_INT32"}}}, {"op": "Less", "name": "LSTM_9539a08e/bidirectional_rnn/bw/bw/while/Less", "input": ["LSTM_9539a08e/bidirectional_rnn/bw/bw/while/Merge", "ConstantFolding/LSTM_9539a08e/bidirectional_rnn/bw/bw/strided_slice_enter"], "attr": {"T": {"type": "DT_INT32"}}}, {"op": "Less", "name": "LSTM_24ab71e5/bidirectional_rnn/fw/fw/while/Less_1", "input": ["LSTM_24ab71e5/bidirectional_rnn/fw/fw/while/Merge_1", "ConstantFolding/LSTM_24ab71e5/bidirectional_rnn/fw/fw/Minimum_enter"], "attr": {"T": {"type": "DT_INT32"}}}, {"op": "Less", "name": "LSTM_24ab71e5/bidirectional_rnn/fw/fw/while/Less", "input": ["LSTM_24ab71e5/bidirectional_rnn/fw/fw/while/Merge", "ConstantFolding/LSTM_24ab71e5/bidirectional_rnn/fw/fw/strided_slice_enter"], "attr": {"T": {"type": "DT_INT32"}}}, {"op": "Less", "name": "LSTM_24ab71e5/bidirectional_rnn/bw/bw/while/Less_1", "input": ["LSTM_24ab71e5/bidirectional_rnn/bw/bw/while/Merge_1", "ConstantFolding/LSTM_24ab71e5/bidirectional_rnn/bw/bw/Minimum_enter"], "attr": {"T": {"type": "DT_INT32"}}}, {"op": "Less", "name": "LSTM_24ab71e5/bidirectional_rnn/bw/bw/while/Less", "input": ["LSTM_24ab71e5/bidirectional_rnn/bw/bw/while/Merge", "ConstantFolding/LSTM_24ab71e5/bidirectional_rnn/bw/bw/strided_slice_enter"], "attr": {"T": {"type": "DT_INT32"}}}, {"op": "TensorArrayScatterV3", "name": "LSTM_9539a08e/bidirectional_rnn/fw/fw/TensorArrayUnstack/TensorArrayScatter/TensorArrayScatterV3", "input": ["LSTM_9539a08e/bidirectional_rnn/fw/fw/TensorArray_1", "LSTM_9539a08e/bidirectional_rnn/fw/fw/TensorArrayUnstack/range", "transpose", "LSTM_9539a08e/bidirectional_rnn/fw/fw/TensorArray_1:1"], "attr": {"T": {"type": "DT_FLOAT"}}}, {"op": "ReverseV2", "name": "LSTM_9539a08e/bidirectional_rnn/bw/ReverseV2", "input": ["transpose", "LSTM_24ab71e5/ReverseV2/axis"], "attr": {"Tidx": {"type": "DT_INT32"}, "T": {"type": "DT_FLOAT"}}}, {"device": "/device:CPU:0", "op": "MatMul", "name": "MatMul", "input": ["Slice_56", "transpose_20"], "attr": {"T": {"type": "DT_FLOAT"}, "transpose_a": {"b": false}, "transpose_b": {"b": false}}}, {"op": "LogicalAnd", "name": "LSTM_9539a08e/bidirectional_rnn/fw/fw/while/LogicalAnd", "input": ["LSTM_9539a08e/bidirectional_rnn/fw/fw/while/Less", "LSTM_9539a08e/bidirectional_rnn/fw/fw/while/Less_1"]}, {"op": "LogicalAnd", "name": "LSTM_9539a08e/bidirectional_rnn/bw/bw/while/LogicalAnd", "input": ["LSTM_9539a08e/bidirectional_rnn/bw/bw/while/Less", "LSTM_9539a08e/bidirectional_rnn/bw/bw/while/Less_1"]}, {"op": "LogicalAnd", "name": "LSTM_24ab71e5/bidirectional_rnn/fw/fw/while/LogicalAnd", "input": ["LSTM_24ab71e5/bidirectional_rnn/fw/fw/while/Less", "LSTM_24ab71e5/bidirectional_rnn/fw/fw/while/Less_1"]}, {"op": "LogicalAnd", "name": "LSTM_24ab71e5/bidirectional_rnn/bw/bw/while/LogicalAnd", "input": ["LSTM_24ab71e5/bidirectional_rnn/bw/bw/while/Less", "LSTM_24ab71e5/bidirectional_rnn/bw/bw/while/Less_1"]}, {"op": "Enter", "name": "LSTM_9539a08e/bidirectional_rnn/fw/fw/while/TensorArrayReadV3/Enter_1", "input": ["LSTM_9539a08e/bidirectional_rnn/fw/fw/TensorArrayUnstack/TensorArrayScatter/TensorArrayScatterV3"], "attr": {"parallel_iterations": {"i": "32"}, "frame_name": {"s": "TFNUTV85NTM5YTA4ZS9iaWRpcmVjdGlvbmFsX3Jubi9mdy9mdy93aGlsZS93aGlsZV9jb250ZXh0"}, "T": {"type": "DT_FLOAT"}, "is_constant": {"b": true}}}, {"op": "TensorArrayScatterV3", "name": "LSTM_9539a08e/bidirectional_rnn/bw/bw/TensorArrayUnstack/TensorArrayScatter/TensorArrayScatterV3", "input": ["LSTM_9539a08e/bidirectional_rnn/bw/bw/TensorArray_1", "LSTM_9539a08e/bidirectional_rnn/fw/fw/TensorArrayUnstack/range", "LSTM_9539a08e/bidirectional_rnn/bw/ReverseV2", "LSTM_9539a08e/bidirectional_rnn/bw/bw/TensorArray_1:1"], "attr": {"T": {"type": "DT_FLOAT"}}}, {"op": "AddV2", "name": "add_6", "input": ["MatMul", "mul_5"], "attr": {"T": {"type": "DT_FLOAT"}}}, {"op": "LoopCond", "name": "LSTM_9539a08e/bidirectional_rnn/fw/fw/while/LoopCond", "input": ["LSTM_9539a08e/bidirectional_rnn/fw/fw/while/LogicalAnd"]}, {"op": "LoopCond", "name": "LSTM_9539a08e/bidirectional_rnn/bw/bw/while/LoopCond", "input": ["LSTM_9539a08e/bidirectional_rnn/bw/bw/while/LogicalAnd"]}, {"op": "LoopCond", "name": "LSTM_24ab71e5/bidirectional_rnn/fw/fw/while/LoopCond", "input": ["LSTM_24ab71e5/bidirectional_rnn/fw/fw/while/LogicalAnd"]}, {"op": "LoopCond", "name": "LSTM_24ab71e5/bidirectional_rnn/bw/bw/while/LoopCond", "input": ["LSTM_24ab71e5/bidirectional_rnn/bw/bw/while/LogicalAnd"]}, {"op": "Enter", "name": "LSTM_9539a08e/bidirectional_rnn/bw/bw/while/TensorArrayReadV3/Enter_1", "input": ["LSTM_9539a08e/bidirectional_rnn/bw/bw/TensorArrayUnstack/TensorArrayScatter/TensorArrayScatterV3"], "attr": {"parallel_iterations": {"i": "32"}, "frame_name": {"s": "TFNUTV85NTM5YTA4ZS9iaWRpcmVjdGlvbmFsX3Jubi9idy9idy93aGlsZS93aGlsZV9jb250ZXh0"}, "T": {"type": "DT_FLOAT"}, "is_constant": {"b": true}}}, {"op": "Relu", "name": "Relu", "input": ["add_6"], "attr": {"T": {"type": "DT_FLOAT"}}}, {"op": "Switch", "name": "LSTM_9539a08e/bidirectional_rnn/fw/fw/while/Switch_1", "input": ["LSTM_9539a08e/bidirectional_rnn/fw/fw/while/Merge_1", "LSTM_9539a08e/bidirectional_rnn/fw/fw/while/LoopCond"], "attr": {"T": {"type": "DT_INT32"}}}, {"op": "Switch", "name": "LSTM_9539a08e/bidirectional_rnn/fw/fw/while/Switch_2", "input": ["LSTM_9539a08e/bidirectional_rnn/fw/fw/while/Merge_2", "LSTM_9539a08e/bidirectional_rnn/fw/fw/while/LoopCond"], "attr": {"T": {"type": "DT_FLOAT"}}}, {"op": "Switch", "name": "LSTM_9539a08e/bidirectional_rnn/fw/fw/while/Switch_3", "input": ["LSTM_9539a08e/bidirectional_rnn/fw/fw/while/Merge_3", "LSTM_9539a08e/bidirectional_rnn/fw/fw/while/LoopCond"], "attr": {"T": {"type": "DT_FLOAT"}}}, {"op": "Switch", "name": "LSTM_9539a08e/bidirectional_rnn/fw/fw/while/Switch_4", "input": ["LSTM_9539a08e/bidirectional_rnn/fw/fw/while/Merge_4", "LSTM_9539a08e/bidirectional_rnn/fw/fw/while/LoopCond"], "attr": {"T": {"type": "DT_FLOAT"}}}, {"op": "Switch", "name": "LSTM_9539a08e/bidirectional_rnn/fw/fw/while/Switch", "input": ["LSTM_9539a08e/bidirectional_rnn/fw/fw/while/Merge", "LSTM_9539a08e/bidirectional_rnn/fw/fw/while/LoopCond"], "attr": {"T": {"type": "DT_INT32"}}}, {"op": "Switch", "name": "LSTM_9539a08e/bidirectional_rnn/bw/bw/while/Switch_1", "input": ["LSTM_9539a08e/bidirectional_rnn/bw/bw/while/Merge_1", "LSTM_9539a08e/bidirectional_rnn/bw/bw/while/LoopCond"], "attr": {"T": {"type": "DT_INT32"}}}, {"op": "Switch", "name": "LSTM_9539a08e/bidirectional_rnn/bw/bw/while/Switch_2", "input": ["LSTM_9539a08e/bidirectional_rnn/bw/bw/while/Merge_2", "LSTM_9539a08e/bidirectional_rnn/bw/bw/while/LoopCond"], "attr": {"T": {"type": "DT_FLOAT"}}}, {"op": "Switch", "name": "LSTM_9539a08e/bidirectional_rnn/bw/bw/while/Switch_3", "input": ["LSTM_9539a08e/bidirectional_rnn/bw/bw/while/Merge_3", "LSTM_9539a08e/bidirectional_rnn/bw/bw/while/LoopCond"], "attr": {"T": {"type": "DT_FLOAT"}}}, {"op": "Switch", "name": "LSTM_9539a08e/bidirectional_rnn/bw/bw/while/Switch_4", "input": ["LSTM_9539a08e/bidirectional_rnn/bw/bw/while/Merge_4", "LSTM_9539a08e/bidirectional_rnn/bw/bw/while/LoopCond"], "attr": {"T": {"type": "DT_FLOAT"}}}, {"op": "Switch", "name": "LSTM_9539a08e/bidirectional_rnn/bw/bw/while/Switch", "input": ["LSTM_9539a08e/bidirectional_rnn/bw/bw/while/Merge", "LSTM_9539a08e/bidirectional_rnn/bw/bw/while/LoopCond"], "attr": {"T": {"type": "DT_INT32"}}}, {"op": "Switch", "name": "LSTM_24ab71e5/bidirectional_rnn/fw/fw/while/Switch_1", "input": ["LSTM_24ab71e5/bidirectional_rnn/fw/fw/while/Merge_1", "LSTM_24ab71e5/bidirectional_rnn/fw/fw/while/LoopCond"], "attr": {"T": {"type": "DT_INT32"}}}, {"op": "Switch", "name": "LSTM_24ab71e5/bidirectional_rnn/fw/fw/while/Switch_2", "input": ["LSTM_24ab71e5/bidirectional_rnn/fw/fw/while/Merge_2", "LSTM_24ab71e5/bidirectional_rnn/fw/fw/while/LoopCond"], "attr": {"T": {"type": "DT_FLOAT"}}}, {"op": "Switch", "name": "LSTM_24ab71e5/bidirectional_rnn/fw/fw/while/Switch_3", "input": ["LSTM_24ab71e5/bidirectional_rnn/fw/fw/while/Merge_3", "LSTM_24ab71e5/bidirectional_rnn/fw/fw/while/LoopCond"], "attr": {"T": {"type": "DT_FLOAT"}}}, {"op": "Switch", "name": "LSTM_24ab71e5/bidirectional_rnn/fw/fw/while/Switch_4", "input": ["LSTM_24ab71e5/bidirectional_rnn/fw/fw/while/Merge_4", "LSTM_24ab71e5/bidirectional_rnn/fw/fw/while/LoopCond"], "attr": {"T": {"type": "DT_FLOAT"}}}, {"op": "Switch", "name": "LSTM_24ab71e5/bidirectional_rnn/fw/fw/while/Switch", "input": ["LSTM_24ab71e5/bidirectional_rnn/fw/fw/while/Merge", "LSTM_24ab71e5/bidirectional_rnn/fw/fw/while/LoopCond"], "attr": {"T": {"type": "DT_INT32"}}}, {"op": "Switch", "name": "LSTM_24ab71e5/bidirectional_rnn/bw/bw/while/Switch_1", "input": ["LSTM_24ab71e5/bidirectional_rnn/bw/bw/while/Merge_1", "LSTM_24ab71e5/bidirectional_rnn/bw/bw/while/LoopCond"], "attr": {"T": {"type": "DT_INT32"}}}, {"op": "Switch", "name": "LSTM_24ab71e5/bidirectional_rnn/bw/bw/while/Switch_2", "input": ["LSTM_24ab71e5/bidirectional_rnn/bw/bw/while/Merge_2", "LSTM_24ab71e5/bidirectional_rnn/bw/bw/while/LoopCond"], "attr": {"T": {"type": "DT_FLOAT"}}}, {"op": "Switch", "name": "LSTM_24ab71e5/bidirectional_rnn/bw/bw/while/Switch_3", "input": ["LSTM_24ab71e5/bidirectional_rnn/bw/bw/while/Merge_3", "LSTM_24ab71e5/bidirectional_rnn/bw/bw/while/LoopCond"], "attr": {"T": {"type": "DT_FLOAT"}}}, {"op": "Switch", "name": "LSTM_24ab71e5/bidirectional_rnn/bw/bw/while/Switch_4", "input": ["LSTM_24ab71e5/bidirectional_rnn/bw/bw/while/Merge_4", "LSTM_24ab71e5/bidirectional_rnn/bw/bw/while/LoopCond"], "attr": {"T": {"type": "DT_FLOAT"}}}, {"op": "Switch", "name": "LSTM_24ab71e5/bidirectional_rnn/bw/bw/while/Switch", "input": ["LSTM_24ab71e5/bidirectional_rnn/bw/bw/while/Merge", "LSTM_24ab71e5/bidirectional_rnn/bw/bw/while/LoopCond"], "attr": {"T": {"type": "DT_INT32"}}}, {"op": "TensorArrayReadV3", "name": "LSTM_9539a08e/bidirectional_rnn/fw/fw/while/TensorArrayReadV3", "input": ["LSTM_9539a08e/bidirectional_rnn/fw/fw/while/TensorArrayReadV3/Enter", "LSTM_9539a08e/bidirectional_rnn/fw/fw/while/Switch_1:1", "LSTM_9539a08e/bidirectional_rnn/fw/fw/while/TensorArrayReadV3/Enter_1"], "attr": {"dtype": {"type": "DT_FLOAT"}}}, {"op": "Exit", "name": "LSTM_9539a08e/bidirectional_rnn/fw/fw/while/Exit_2", "input": ["LSTM_9539a08e/bidirectional_rnn/fw/fw/while/Switch_2"], "attr": {"T": {"type": "DT_FLOAT"}}}, {"op": "Identity", "name": "LSTM_9539a08e/bidirectional_rnn/fw/fw/while/Identity", "input": ["LSTM_9539a08e/bidirectional_rnn/fw/fw/while/Switch:1"], "attr": {"T": {"type": "DT_INT32"}}}, {"op": "TensorArrayReadV3", "name": "LSTM_9539a08e/bidirectional_rnn/bw/bw/while/TensorArrayReadV3", "input": ["LSTM_9539a08e/bidirectional_rnn/bw/bw/while/TensorArrayReadV3/Enter", "LSTM_9539a08e/bidirectional_rnn/bw/bw/while/Switch_1:1", "LSTM_9539a08e/bidirectional_rnn/bw/bw/while/TensorArrayReadV3/Enter_1"], "attr": {"dtype": {"type": "DT_FLOAT"}}}, {"op": "Exit", "name": "LSTM_9539a08e/bidirectional_rnn/bw/bw/while/Exit_2", "input": ["LSTM_9539a08e/bidirectional_rnn/bw/bw/while/Switch_2"], "attr": {"T": {"type": "DT_FLOAT"}}}, {"op": "Identity", "name": "LSTM_9539a08e/bidirectional_rnn/bw/bw/while/Identity", "input": ["LSTM_9539a08e/bidirectional_rnn/bw/bw/while/Switch:1"], "attr": {"T": {"type": "DT_INT32"}}}, {"op": "Exit", "name": "LSTM_24ab71e5/bidirectional_rnn/fw/fw/while/Exit_2", "input": ["LSTM_24ab71e5/bidirectional_rnn/fw/fw/while/Switch_2"], "attr": {"T": {"type": "DT_FLOAT"}}}, {"op": "Identity", "name": "LSTM_24ab71e5/bidirectional_rnn/fw/fw/while/Identity", "input": ["LSTM_24ab71e5/bidirectional_rnn/fw/fw/while/Switch:1"], "attr": {"T": {"type": "DT_INT32"}}}, {"op": "Exit", "name": "LSTM_24ab71e5/bidirectional_rnn/bw/bw/while/Exit_2", "input": ["LSTM_24ab71e5/bidirectional_rnn/bw/bw/while/Switch_2"], "attr": {"T": {"type": "DT_FLOAT"}}}, {"op": "Identity", "name": "LSTM_24ab71e5/bidirectional_rnn/bw/bw/while/Identity", "input": ["LSTM_24ab71e5/bidirectional_rnn/bw/bw/while/Switch:1"], "attr": {"T": {"type": "DT_INT32"}}}, {"op": "Const", "name": "LSTM_9539a08e/bidirectional_rnn/fw/fw/TensorArrayStack/range", "input": ["^LSTM_9539a08e/bidirectional_rnn/fw/fw/TensorArray", "^LSTM_9539a08e/bidirectional_rnn/fw/fw/while/Exit_2"], "attr": {"dtype": {"type": "DT_INT32"}, "value": {"tensor": {"tensorShape": {"dim": [{"size": "15"}]}, "dtype": "DT_INT32"}}}}, {"op": "Const", "name": "LSTM_9539a08e/bidirectional_rnn/fw/fw/while/add/y", "input": ["^LSTM_9539a08e/bidirectional_rnn/fw/fw/while/Identity"], "attr": {"dtype": {"type": "DT_INT32"}, "value": {"tensor": {"tensorShape": {}, "dtype": "DT_INT32"}}}}, {"op": "Const", "name": "concat_17", "input": ["^LSTM_9539a08e/bidirectional_rnn/fw/fw/while/Identity", "^split/Enter", "^split_1/Enter"], "attr": {"dtype": {"type": "DT_FLOAT"}, "value": {"tensor": {"tensorShape": {"dim": [{"size": "37"}, {"size": "128"}]}, "dtype": "DT_FLOAT"}}}}, {"op": "Const", "name": "Add", "input": ["^LSTM_9539a08e/bidirectional_rnn/fw/fw/while/Identity", "^split_4/Enter"], "attr": {"dtype": {"type": "DT_FLOAT"}, "value": {"tensor": {"tensorShape": {"dim": [{"size": "128"}]}, "dtype": "DT_FLOAT"}}}}, {"op": "Const", "name": "LSTM_9539a08e/bidirectional_rnn/bw/bw/TensorArrayStack/range", "input": ["^LSTM_9539a08e/bidirectional_rnn/bw/bw/TensorArray", "^LSTM_9539a08e/bidirectional_rnn/bw/bw/while/Exit_2"], "attr": {"dtype": {"type": "DT_INT32"}, "value": {"tensor": {"tensorShape": {"dim": [{"size": "15"}]}, "dtype": "DT_INT32"}}}}, {"op": "Const", "name": "LSTM_9539a08e/bidirectional_rnn/bw/bw/while/add/y", "input": ["^LSTM_9539a08e/bidirectional_rnn/bw/bw/while/Identity"], "attr": {"dtype": {"type": "DT_INT32"}, "value": {"tensor": {"tensorShape": {}, "dtype": "DT_INT32"}}}}, {"op": "Const", "name": "concat_22", "input": ["^LSTM_9539a08e/bidirectional_rnn/bw/bw/while/Identity", "^split_8/Enter", "^split_9/Enter"], "attr": {"dtype": {"type": "DT_FLOAT"}, "value": {"tensor": {"tensorShape": {"dim": [{"size": "37"}, {"size": "128"}]}, "dtype": "DT_FLOAT"}}}}, {"op": "Const", "name": "Add_1", "input": ["^LSTM_9539a08e/bidirectional_rnn/bw/bw/while/Identity", "^split_12/Enter"], "attr": {"dtype": {"type": "DT_FLOAT"}, "value": {"tensor": {"tensorShape": {"dim": [{"size": "128"}]}, "dtype": "DT_FLOAT"}}}}, {"op": "Const", "name": "LSTM_24ab71e5/bidirectional_rnn/fw/fw/TensorArrayStack/range", "input": ["^LSTM_24ab71e5/bidirectional_rnn/fw/fw/TensorArray", "^LSTM_24ab71e5/bidirectional_rnn/fw/fw/while/Exit_2"], "attr": {"dtype": {"type": "DT_INT32"}, "value": {"tensor": {"tensorShape": {"dim": [{"size": "15"}]}, "dtype": "DT_INT32"}}}}, {"op": "Const", "name": "LSTM_24ab71e5/bidirectional_rnn/fw/fw/while/add/y", "input": ["^LSTM_24ab71e5/bidirectional_rnn/fw/fw/while/Identity"], "attr": {"dtype": {"type": "DT_INT32"}, "value": {"tensor": {"tensorShape": {}, "dtype": "DT_INT32"}}}}, {"op": "Const", "name": "concat_45", "input": ["^LSTM_24ab71e5/bidirectional_rnn/fw/fw/while/Identity", "^split_16/Enter", "^split_17/Enter"], "attr": {"dtype": {"type": "DT_FLOAT"}, "value": {"tensor": {"tensorShape": {"dim": [{"size": "96"}, {"size": "128"}]}, "dtype": "DT_FLOAT"}}}}, {"op": "Const", "name": "Add_3", "input": ["^LSTM_24ab71e5/bidirectional_rnn/fw/fw/while/Identity", "^split_20/Enter"], "attr": {"dtype": {"type": "DT_FLOAT"}, "value": {"tensor": {"tensorShape": {"dim": [{"size": "128"}]}, "dtype": "DT_FLOAT"}}}}, {"op": "Const", "name": "LSTM_24ab71e5/bidirectional_rnn/bw/bw/TensorArrayStack/range", "input": ["^LSTM_24ab71e5/bidirectional_rnn/bw/bw/TensorArray", "^LSTM_24ab71e5/bidirectional_rnn/bw/bw/while/Exit_2"], "attr": {"dtype": {"type": "DT_INT32"}, "value": {"tensor": {"tensorShape": {"dim": [{"size": "15"}]}, "dtype": "DT_INT32"}}}}, {"op": "Const", "name": "LSTM_24ab71e5/bidirectional_rnn/bw/bw/while/add/y", "input": ["^LSTM_24ab71e5/bidirectional_rnn/bw/bw/while/Identity"], "attr": {"dtype": {"type": "DT_INT32"}, "value": {"tensor": {"tensorShape": {}, "dtype": "DT_INT32"}}}}, {"op": "Const", "name": "concat_50", "input": ["^LSTM_24ab71e5/bidirectional_rnn/bw/bw/while/Identity", "^split_24/Enter", "^split_25/Enter"], "attr": {"dtype": {"type": "DT_FLOAT"}, "value": {"tensor": {"tensorShape": {"dim": [{"size": "96"}, {"size": "128"}]}, "dtype": "DT_FLOAT"}}}}, {"op": "Const", "name": "Add_4", "input": ["^LSTM_24ab71e5/bidirectional_rnn/bw/bw/while/Identity", "^split_28/Enter"], "attr": {"dtype": {"type": "DT_FLOAT"}, "value": {"tensor": {"tensorShape": {"dim": [{"size": "128"}]}, "dtype": "DT_FLOAT"}}}}, {"op": "TensorArrayGatherV3", "name": "LSTM_9539a08e/bidirectional_rnn/fw/fw/TensorArrayStack/TensorArrayGatherV3", "input": ["LSTM_9539a08e/bidirectional_rnn/fw/fw/TensorArray", "LSTM_9539a08e/bidirectional_rnn/fw/fw/TensorArrayStack/range", "LSTM_9539a08e/bidirectional_rnn/fw/fw/while/Exit_2"], "attr": {"element_shape": {"shape": {"dim": [{"size": "1"}, {"size": "32"}]}}, "dtype": {"type": "DT_FLOAT"}}}, {"op": "AddV2", "name": "LSTM_9539a08e/bidirectional_rnn/fw/fw/while/add", "input": ["LSTM_9539a08e/bidirectional_rnn/fw/fw/while/Identity", "LSTM_9539a08e/bidirectional_rnn/fw/fw/while/add/y"], "attr": {"T": {"type": "DT_INT32"}}}, {"op": "AddV2", "name": "LSTM_9539a08e/bidirectional_rnn/fw/fw/while/add_1", "input": ["LSTM_9539a08e/bidirectional_rnn/fw/fw/while/Switch_1:1", "LSTM_9539a08e/bidirectional_rnn/fw/fw/while/add/y"], "attr": {"T": {"type": "DT_INT32"}}}, {"op": "ConcatV2", "name": "LSTM_9539a08e/bidirectional_rnn/fw/fw/while/fw/multi_rnn_cell/cell_0/lstm_cell/concat", "input": ["LSTM_9539a08e/bidirectional_rnn/fw/fw/while/TensorArrayReadV3", "LSTM_9539a08e/bidirectional_rnn/fw/fw/while/Switch_4:1", "LSTM_9539a08e/bidirectional_rnn/fw/fw/while/add/y"], "attr": {"N": {"i": "2"}, "T": {"type": "DT_FLOAT"}, "Tidx": {"type": "DT_INT32"}}}, {"op": "TensorArrayGatherV3", "name": "LSTM_9539a08e/bidirectional_rnn/bw/bw/TensorArrayStack/TensorArrayGatherV3", "input": ["LSTM_9539a08e/bidirectional_rnn/bw/bw/TensorArray", "LSTM_9539a08e/bidirectional_rnn/bw/bw/TensorArrayStack/range", "LSTM_9539a08e/bidirectional_rnn/bw/bw/while/Exit_2"], "attr": {"element_shape": {"shape": {"dim": [{"size": "1"}, {"size": "32"}]}}, "dtype": {"type": "DT_FLOAT"}}}, {"op": "AddV2", "name": "LSTM_9539a08e/bidirectional_rnn/bw/bw/while/add", "input": ["LSTM_9539a08e/bidirectional_rnn/bw/bw/while/Identity", "LSTM_9539a08e/bidirectional_rnn/bw/bw/while/add/y"], "attr": {"T": {"type": "DT_INT32"}}}, {"op": "AddV2", "name": "LSTM_9539a08e/bidirectional_rnn/bw/bw/while/add_1", "input": ["LSTM_9539a08e/bidirectional_rnn/bw/bw/while/Switch_1:1", "LSTM_9539a08e/bidirectional_rnn/bw/bw/while/add/y"], "attr": {"T": {"type": "DT_INT32"}}}, {"op": "ConcatV2", "name": "LSTM_9539a08e/bidirectional_rnn/bw/bw/while/bw/multi_rnn_cell/cell_0/lstm_cell/concat", "input": ["LSTM_9539a08e/bidirectional_rnn/bw/bw/while/TensorArrayReadV3", "LSTM_9539a08e/bidirectional_rnn/bw/bw/while/Switch_4:1", "LSTM_9539a08e/bidirectional_rnn/bw/bw/while/add/y"], "attr": {"N": {"i": "2"}, "T": {"type": "DT_FLOAT"}, "Tidx": {"type": "DT_INT32"}}}, {"op": "TensorArrayGatherV3", "name": "LSTM_24ab71e5/bidirectional_rnn/fw/fw/TensorArrayStack/TensorArrayGatherV3", "input": ["LSTM_24ab71e5/bidirectional_rnn/fw/fw/TensorArray", "LSTM_24ab71e5/bidirectional_rnn/fw/fw/TensorArrayStack/range", "LSTM_24ab71e5/bidirectional_rnn/fw/fw/while/Exit_2"], "attr": {"element_shape": {"shape": {"dim": [{"size": "1"}, {"size": "32"}]}}, "dtype": {"type": "DT_FLOAT"}}}, {"op": "AddV2", "name": "LSTM_24ab71e5/bidirectional_rnn/fw/fw/while/add", "input": ["LSTM_24ab71e5/bidirectional_rnn/fw/fw/while/Identity", "LSTM_24ab71e5/bidirectional_rnn/fw/fw/while/add/y"], "attr": {"T": {"type": "DT_INT32"}}}, {"op": "AddV2", "name": "LSTM_24ab71e5/bidirectional_rnn/fw/fw/while/add_1", "input": ["LSTM_24ab71e5/bidirectional_rnn/fw/fw/while/Switch_1:1", "LSTM_24ab71e5/bidirectional_rnn/fw/fw/while/add/y"], "attr": {"T": {"type": "DT_INT32"}}}, {"op": "TensorArrayGatherV3", "name": "LSTM_24ab71e5/bidirectional_rnn/bw/bw/TensorArrayStack/TensorArrayGatherV3", "input": ["LSTM_24ab71e5/bidirectional_rnn/bw/bw/TensorArray", "LSTM_24ab71e5/bidirectional_rnn/bw/bw/TensorArrayStack/range", "LSTM_24ab71e5/bidirectional_rnn/bw/bw/while/Exit_2"], "attr": {"element_shape": {"shape": {"dim": [{"size": "1"}, {"size": "32"}]}}, "dtype": {"type": "DT_FLOAT"}}}, {"op": "AddV2", "name": "LSTM_24ab71e5/bidirectional_rnn/bw/bw/while/add", "input": ["LSTM_24ab71e5/bidirectional_rnn/bw/bw/while/Identity", "LSTM_24ab71e5/bidirectional_rnn/bw/bw/while/add/y"], "attr": {"T": {"type": "DT_INT32"}}}, {"op": "AddV2", "name": "LSTM_24ab71e5/bidirectional_rnn/bw/bw/while/add_1", "input": ["LSTM_24ab71e5/bidirectional_rnn/bw/bw/while/Switch_1:1", "LSTM_24ab71e5/bidirectional_rnn/bw/bw/while/add/y"], "attr": {"T": {"type": "DT_INT32"}}}, {"op": "ExpandDims", "name": "ExpandDims_14", "input": ["LSTM_9539a08e/bidirectional_rnn/fw/fw/TensorArrayStack/TensorArrayGatherV3", "ExpandDims_30/dim"], "attr": {"T": {"type": "DT_FLOAT"}, "Tdim": {"type": "DT_INT32"}}}, {"op": "NextIteration", "name": "LSTM_9539a08e/bidirectional_rnn/fw/fw/while/NextIteration", "input": ["LSTM_9539a08e/bidirectional_rnn/fw/fw/while/add"], "attr": {"T": {"type": "DT_INT32"}}}, {"op": "NextIteration", "name": "LSTM_9539a08e/bidirectional_rnn/fw/fw/while/NextIteration_1", "input": ["LSTM_9539a08e/bidirectional_rnn/fw/fw/while/add_1"], "attr": {"T": {"type": "DT_INT32"}}}, {"device": "/device:CPU:0", "op": "_FusedMatMul", "name": "LSTM_9539a08e/bidirectional_rnn/fw/fw/while/fw/multi_rnn_cell/cell_0/lstm_cell/BiasAdd", "input": ["LSTM_9539a08e/bidirectional_rnn/fw/fw/while/fw/multi_rnn_cell/cell_0/lstm_cell/concat", "concat_17", "Add"], "attr": {"num_args": {"i": "1"}, "T": {"type": "DT_FLOAT"}, "transpose_a": {"b": false}, "epsilon": {"f": 0.0}, "fused_ops": {"list": {"s": ["Qmlhc0FkZA=="]}}, "transpose_b": {"b": false}}}, {"op": "ReverseV2", "name": "LSTM_9539a08e/ReverseV2", "input": ["LSTM_9539a08e/bidirectional_rnn/bw/bw/TensorArrayStack/TensorArrayGatherV3", "LSTM_24ab71e5/ReverseV2/axis"], "attr": {"Tidx": {"type": "DT_INT32"}, "T": {"type": "DT_FLOAT"}}}, {"op": "NextIteration", "name": "LSTM_9539a08e/bidirectional_rnn/bw/bw/while/NextIteration", "input": ["LSTM_9539a08e/bidirectional_rnn/bw/bw/while/add"], "attr": {"T": {"type": "DT_INT32"}}}, {"op": "NextIteration", "name": "LSTM_9539a08e/bidirectional_rnn/bw/bw/while/NextIteration_1", "input": ["LSTM_9539a08e/bidirectional_rnn/bw/bw/while/add_1"], "attr": {"T": {"type": "DT_INT32"}}}, {"device": "/device:CPU:0", "op": "_FusedMatMul", "name": "LSTM_9539a08e/bidirectional_rnn/bw/bw/while/bw/multi_rnn_cell/cell_0/lstm_cell/BiasAdd", "input": ["LSTM_9539a08e/bidirectional_rnn/bw/bw/while/bw/multi_rnn_cell/cell_0/lstm_cell/concat", "concat_22", "Add_1"], "attr": {"num_args": {"i": "1"}, "T": {"type": "DT_FLOAT"}, "transpose_a": {"b": false}, "transpose_b": {"b": false}, "fused_ops": {"list": {"s": ["Qmlhc0FkZA=="]}}, "epsilon": {"f": 0.0}}}, {"op": "ExpandDims", "name": "ExpandDims_30", "input": ["LSTM_24ab71e5/bidirectional_rnn/fw/fw/TensorArrayStack/TensorArrayGatherV3", "ExpandDims_30/dim"], "attr": {"T": {"type": "DT_FLOAT"}, "Tdim": {"type": "DT_INT32"}}}, {"op": "NextIteration", "name": "LSTM_24ab71e5/bidirectional_rnn/fw/fw/while/NextIteration", "input": ["LSTM_24ab71e5/bidirectional_rnn/fw/fw/while/add"], "attr": {"T": {"type": "DT_INT32"}}}, {"op": "NextIteration", "name": "LSTM_24ab71e5/bidirectional_rnn/fw/fw/while/NextIteration_1", "input": ["LSTM_24ab71e5/bidirectional_rnn/fw/fw/while/add_1"], "attr": {"T": {"type": "DT_INT32"}}}, {"op": "ReverseV2", "name": "LSTM_24ab71e5/ReverseV2", "input": ["LSTM_24ab71e5/bidirectional_rnn/bw/bw/TensorArrayStack/TensorArrayGatherV3", "LSTM_24ab71e5/ReverseV2/axis"], "attr": {"Tidx": {"type": "DT_INT32"}, "T": {"type": "DT_FLOAT"}}}, {"op": "NextIteration", "name": "LSTM_24ab71e5/bidirectional_rnn/bw/bw/while/NextIteration", "input": ["LSTM_24ab71e5/bidirectional_rnn/bw/bw/while/add"], "attr": {"T": {"type": "DT_INT32"}}}, {"op": "NextIteration", "name": "LSTM_24ab71e5/bidirectional_rnn/bw/bw/while/NextIteration_1", "input": ["LSTM_24ab71e5/bidirectional_rnn/bw/bw/while/add_1"], "attr": {"T": {"type": "DT_INT32"}}}, {"op": "Split", "name": "LSTM_9539a08e/bidirectional_rnn/fw/fw/while/fw/multi_rnn_cell/cell_0/lstm_cell/split", "input": ["LSTM_9539a08e/bidirectional_rnn/fw/fw/while/add/y", "LSTM_9539a08e/bidirectional_rnn/fw/fw/while/fw/multi_rnn_cell/cell_0/lstm_cell/BiasAdd"], "attr": {"T": {"type": "DT_FLOAT"}, "num_split": {"i": "4"}}}, {"op": "ExpandDims", "name": "ExpandDims_15", "input": ["LSTM_9539a08e/ReverseV2", "ExpandDims_30/dim"], "attr": {"T": {"type": "DT_FLOAT"}, "Tdim": {"type": "DT_INT32"}}}, {"op": "Split", "name": "LSTM_9539a08e/bidirectional_rnn/bw/bw/while/bw/multi_rnn_cell/cell_0/lstm_cell/split", "input": ["LSTM_9539a08e/bidirectional_rnn/bw/bw/while/add/y", "LSTM_9539a08e/bidirectional_rnn/bw/bw/while/bw/multi_rnn_cell/cell_0/lstm_cell/BiasAdd"], "attr": {"T": {"type": "DT_FLOAT"}, "num_split": {"i": "4"}}}, {"op": "ExpandDims", "name": "ExpandDims_31", "input": ["LSTM_24ab71e5/ReverseV2", "ExpandDims_30/dim"], "attr": {"T": {"type": "DT_FLOAT"}, "Tdim": {"type": "DT_INT32"}}}, {"op": "Sigmoid", "name": "LSTM_9539a08e/bidirectional_rnn/fw/fw/while/fw/multi_rnn_cell/cell_0/lstm_cell/Sigmoid_1", "input": ["LSTM_9539a08e/bidirectional_rnn/fw/fw/while/fw/multi_rnn_cell/cell_0/lstm_cell/split"], "attr": {"T": {"type": "DT_FLOAT"}}}, {"op": "Tanh", "name": "LSTM_9539a08e/bidirectional_rnn/fw/fw/while/fw/multi_rnn_cell/cell_0/lstm_cell/Tanh", "input": ["LSTM_9539a08e/bidirectional_rnn/fw/fw/while/fw/multi_rnn_cell/cell_0/lstm_cell/split:1"], "attr": {"T": {"type": "DT_FLOAT"}}}, {"op": "Sigmoid", "name": "LSTM_9539a08e/bidirectional_rnn/fw/fw/while/fw/multi_rnn_cell/cell_0/lstm_cell/Sigmoid", "input": ["LSTM_9539a08e/bidirectional_rnn/fw/fw/while/fw/multi_rnn_cell/cell_0/lstm_cell/split:2"], "attr": {"T": {"type": "DT_FLOAT"}}}, {"op": "Sigmoid", "name": "LSTM_9539a08e/bidirectional_rnn/fw/fw/while/fw/multi_rnn_cell/cell_0/lstm_cell/Sigmoid_2", "input": ["LSTM_9539a08e/bidirectional_rnn/fw/fw/while/fw/multi_rnn_cell/cell_0/lstm_cell/split:3"], "attr": {"T": {"type": "DT_FLOAT"}}}, {"op": "ConcatV2", "name": "concat_27", "input": ["ExpandDims_14", "ExpandDims_15", "ExpandDims_30/dim"], "attr": {"N": {"i": "2"}, "T": {"type": "DT_FLOAT"}, "Tidx": {"type": "DT_INT32"}}}, {"op": "Sigmoid", "name": "LSTM_9539a08e/bidirectional_rnn/bw/bw/while/bw/multi_rnn_cell/cell_0/lstm_cell/Sigmoid_1", "input": ["LSTM_9539a08e/bidirectional_rnn/bw/bw/while/bw/multi_rnn_cell/cell_0/lstm_cell/split"], "attr": {"T": {"type": "DT_FLOAT"}}}, {"op": "Tanh", "name": "LSTM_9539a08e/bidirectional_rnn/bw/bw/while/bw/multi_rnn_cell/cell_0/lstm_cell/Tanh", "input": ["LSTM_9539a08e/bidirectional_rnn/bw/bw/while/bw/multi_rnn_cell/cell_0/lstm_cell/split:1"], "attr": {"T": {"type": "DT_FLOAT"}}}, {"op": "Sigmoid", "name": "LSTM_9539a08e/bidirectional_rnn/bw/bw/while/bw/multi_rnn_cell/cell_0/lstm_cell/Sigmoid", "input": ["LSTM_9539a08e/bidirectional_rnn/bw/bw/while/bw/multi_rnn_cell/cell_0/lstm_cell/split:2"], "attr": {"T": {"type": "DT_FLOAT"}}}, {"op": "Sigmoid", "name": "LSTM_9539a08e/bidirectional_rnn/bw/bw/while/bw/multi_rnn_cell/cell_0/lstm_cell/Sigmoid_2", "input": ["LSTM_9539a08e/bidirectional_rnn/bw/bw/while/bw/multi_rnn_cell/cell_0/lstm_cell/split:3"], "attr": {"T": {"type": "DT_FLOAT"}}}, {"op": "ConcatV2", "name": "concat_55", "input": ["ExpandDims_30", "ExpandDims_31", "ExpandDims_30/dim"], "attr": {"N": {"i": "2"}, "T": {"type": "DT_FLOAT"}, "Tidx": {"type": "DT_INT32"}}}, {"op": "Mul", "name": "LSTM_9539a08e/bidirectional_rnn/fw/fw/while/fw/multi_rnn_cell/cell_0/lstm_cell/mul_1", "input": ["LSTM_9539a08e/bidirectional_rnn/fw/fw/while/fw/multi_rnn_cell/cell_0/lstm_cell/Sigmoid_1", "LSTM_9539a08e/bidirectional_rnn/fw/fw/while/fw/multi_rnn_cell/cell_0/lstm_cell/Tanh"], "attr": {"T": {"type": "DT_FLOAT"}}}, {"op": "Mul", "name": "LSTM_9539a08e/bidirectional_rnn/fw/fw/while/fw/multi_rnn_cell/cell_0/lstm_cell/mul", "input": ["LSTM_9539a08e/bidirectional_rnn/fw/fw/while/Switch_3:1", "LSTM_9539a08e/bidirectional_rnn/fw/fw/while/fw/multi_rnn_cell/cell_0/lstm_cell/Sigmoid"], "attr": {"T": {"type": "DT_FLOAT"}}}, {"op": "Transpose", "name": "transpose_9", "input": ["concat_27", "transpose_18/perm"], "attr": {"T": {"type": "DT_FLOAT"}, "Tperm": {"type": "DT_INT32"}}}, {"op": "Mul", "name": "LSTM_9539a08e/bidirectional_rnn/bw/bw/while/bw/multi_rnn_cell/cell_0/lstm_cell/mul_1", "input": ["LSTM_9539a08e/bidirectional_rnn/bw/bw/while/bw/multi_rnn_cell/cell_0/lstm_cell/Sigmoid_1", "LSTM_9539a08e/bidirectional_rnn/bw/bw/while/bw/multi_rnn_cell/cell_0/lstm_cell/Tanh"], "attr": {"T": {"type": "DT_FLOAT"}}}, {"op": "Mul", "name": "LSTM_9539a08e/bidirectional_rnn/bw/bw/while/bw/multi_rnn_cell/cell_0/lstm_cell/mul", "input": ["LSTM_9539a08e/bidirectional_rnn/bw/bw/while/Switch_3:1", "LSTM_9539a08e/bidirectional_rnn/bw/bw/while/bw/multi_rnn_cell/cell_0/lstm_cell/Sigmoid"], "attr": {"T": {"type": "DT_FLOAT"}}}, {"op": "Transpose", "name": "transpose_18", "input": ["concat_55", "transpose_18/perm"], "attr": {"T": {"type": "DT_FLOAT"}, "Tperm": {"type": "DT_INT32"}}}, {"op": "AddV2", "name": "LSTM_9539a08e/bidirectional_rnn/fw/fw/while/fw/multi_rnn_cell/cell_0/lstm_cell/add_1", "input": ["LSTM_9539a08e/bidirectional_rnn/fw/fw/while/fw/multi_rnn_cell/cell_0/lstm_cell/mul", "LSTM_9539a08e/bidirectional_rnn/fw/fw/while/fw/multi_rnn_cell/cell_0/lstm_cell/mul_1"], "attr": {"T": {"type": "DT_FLOAT"}}}, {"op": "Reshape", "name": "Reshape", "input": ["transpose_9", "add_5"], "attr": {"Tshape": {"type": "DT_INT64"}, "T": {"type": "DT_FLOAT"}}}, {"op": "AddV2", "name": "LSTM_9539a08e/bidirectional_rnn/bw/bw/while/bw/multi_rnn_cell/cell_0/lstm_cell/add_1", "input": ["LSTM_9539a08e/bidirectional_rnn/bw/bw/while/bw/multi_rnn_cell/cell_0/lstm_cell/mul", "LSTM_9539a08e/bidirectional_rnn/bw/bw/while/bw/multi_rnn_cell/cell_0/lstm_cell/mul_1"], "attr": {"T": {"type": "DT_FLOAT"}}}, {"op": "Reshape", "name": "Reshape_1", "input": ["transpose_18", "add_5"], "attr": {"Tshape": {"type": "DT_INT64"}, "T": {"type": "DT_FLOAT"}}}, {"op": "Tanh", "name": "LSTM_9539a08e/bidirectional_rnn/fw/fw/while/fw/multi_rnn_cell/cell_0/lstm_cell/Tanh_1", "input": ["LSTM_9539a08e/bidirectional_rnn/fw/fw/while/fw/multi_rnn_cell/cell_0/lstm_cell/add_1"], "attr": {"T": {"type": "DT_FLOAT"}}}, {"op": "NextIteration", "name": "LSTM_9539a08e/bidirectional_rnn/fw/fw/while/NextIteration_3", "input": ["LSTM_9539a08e/bidirectional_rnn/fw/fw/while/fw/multi_rnn_cell/cell_0/lstm_cell/add_1"], "attr": {"T": {"type": "DT_FLOAT"}}}, {"op": "TensorArrayScatterV3", "name": "LSTM_24ab71e5/bidirectional_rnn/fw/fw/TensorArrayUnstack/TensorArrayScatter/TensorArrayScatterV3", "input": ["LSTM_24ab71e5/bidirectional_rnn/fw/fw/TensorArray_1", "LSTM_9539a08e/bidirectional_rnn/fw/fw/TensorArrayUnstack/range", "Reshape", "LSTM_24ab71e5/bidirectional_rnn/fw/fw/TensorArray_1:1"], "attr": {"T": {"type": "DT_FLOAT"}}}, {"op": "ReverseV2", "name": "LSTM_24ab71e5/bidirectional_rnn/bw/ReverseV2", "input": ["Reshape", "LSTM_24ab71e5/ReverseV2/axis"], "attr": {"Tidx": {"type": "DT_INT32"}, "T": {"type": "DT_FLOAT"}}}, {"op": "Tanh", "name": "LSTM_9539a08e/bidirectional_rnn/bw/bw/while/bw/multi_rnn_cell/cell_0/lstm_cell/Tanh_1", "input": ["LSTM_9539a08e/bidirectional_rnn/bw/bw/while/bw/multi_rnn_cell/cell_0/lstm_cell/add_1"], "attr": {"T": {"type": "DT_FLOAT"}}}, {"op": "NextIteration", "name": "LSTM_9539a08e/bidirectional_rnn/bw/bw/while/NextIteration_3", "input": ["LSTM_9539a08e/bidirectional_rnn/bw/bw/while/bw/multi_rnn_cell/cell_0/lstm_cell/add_1"], "attr": {"T": {"type": "DT_FLOAT"}}}, {"op": "Transpose", "name": "transpose_19", "input": ["Reshape_1", "transpose/perm"], "attr": {"T": {"type": "DT_FLOAT"}, "Tperm": {"type": "DT_INT32"}}}, {"op": "Mul", "name": "LSTM_9539a08e/bidirectional_rnn/fw/fw/while/fw/multi_rnn_cell/cell_0/lstm_cell/mul_2", "input": ["LSTM_9539a08e/bidirectional_rnn/fw/fw/while/fw/multi_rnn_cell/cell_0/lstm_cell/Sigmoid_2", "LSTM_9539a08e/bidirectional_rnn/fw/fw/while/fw/multi_rnn_cell/cell_0/lstm_cell/Tanh_1"], "attr": {"T": {"type": "DT_FLOAT"}}}, {"op": "Enter", "name": "LSTM_24ab71e5/bidirectional_rnn/fw/fw/while/TensorArrayReadV3/Enter_1", "input": ["LSTM_24ab71e5/bidirectional_rnn/fw/fw/TensorArrayUnstack/TensorArrayScatter/TensorArrayScatterV3"], "attr": {"parallel_iterations": {"i": "32"}, "frame_name": {"s": "TFNUTV8yNGFiNzFlNS9iaWRpcmVjdGlvbmFsX3Jubi9mdy9mdy93aGlsZS93aGlsZV9jb250ZXh0"}, "T": {"type": "DT_FLOAT"}, "is_constant": {"b": true}}}, {"op": "TensorArrayScatterV3", "name": "LSTM_24ab71e5/bidirectional_rnn/bw/bw/TensorArrayUnstack/TensorArrayScatter/TensorArrayScatterV3", "input": ["LSTM_24ab71e5/bidirectional_rnn/bw/bw/TensorArray_1", "LSTM_9539a08e/bidirectional_rnn/fw/fw/TensorArrayUnstack/range", "LSTM_24ab71e5/bidirectional_rnn/bw/ReverseV2", "LSTM_24ab71e5/bidirectional_rnn/bw/bw/TensorArray_1:1"], "attr": {"T": {"type": "DT_FLOAT"}}}, {"op": "Mul", "name": "LSTM_9539a08e/bidirectional_rnn/bw/bw/while/bw/multi_rnn_cell/cell_0/lstm_cell/mul_2", "input": ["LSTM_9539a08e/bidirectional_rnn/bw/bw/while/bw/multi_rnn_cell/cell_0/lstm_cell/Sigmoid_2", "LSTM_9539a08e/bidirectional_rnn/bw/bw/while/bw/multi_rnn_cell/cell_0/lstm_cell/Tanh_1"], "attr": {"T": {"type": "DT_FLOAT"}}}, {"op": "Reshape", "name": "Reshape_2", "input": ["transpose_19", "Reshape_2/shape"], "attr": {"Tshape": {"type": "DT_INT32"}, "T": {"type": "DT_FLOAT"}}}, {"op": "TensorArrayWriteV3", "name": "LSTM_9539a08e/bidirectional_rnn/fw/fw/while/TensorArrayWrite/TensorArrayWriteV3", "input": ["LSTM_9539a08e/bidirectional_rnn/fw/fw/while/TensorArrayWrite/TensorArrayWriteV3/Enter", "LSTM_9539a08e/bidirectional_rnn/fw/fw/while/Switch_1:1", "LSTM_9539a08e/bidirectional_rnn/fw/fw/while/fw/multi_rnn_cell/cell_0/lstm_cell/mul_2", "LSTM_9539a08e/bidirectional_rnn/fw/fw/while/Switch_2:1"], "attr": {"T": {"type": "DT_FLOAT"}}}, {"op": "NextIteration", "name": "LSTM_9539a08e/bidirectional_rnn/fw/fw/while/NextIteration_4", "input": ["LSTM_9539a08e/bidirectional_rnn/fw/fw/while/fw/multi_rnn_cell/cell_0/lstm_cell/mul_2"], "attr": {"T": {"type": "DT_FLOAT"}}}, {"op": "TensorArrayReadV3", "name": "LSTM_24ab71e5/bidirectional_rnn/fw/fw/while/TensorArrayReadV3", "input": ["LSTM_24ab71e5/bidirectional_rnn/fw/fw/while/TensorArrayReadV3/Enter", "LSTM_24ab71e5/bidirectional_rnn/fw/fw/while/Switch_1:1", "LSTM_24ab71e5/bidirectional_rnn/fw/fw/while/TensorArrayReadV3/Enter_1"], "attr": {"dtype": {"type": "DT_FLOAT"}}}, {"op": "Enter", "name": "LSTM_24ab71e5/bidirectional_rnn/bw/bw/while/TensorArrayReadV3/Enter_1", "input": ["LSTM_24ab71e5/bidirectional_rnn/bw/bw/TensorArrayUnstack/TensorArrayScatter/TensorArrayScatterV3"], "attr": {"parallel_iterations": {"i": "32"}, "frame_name": {"s": "TFNUTV8yNGFiNzFlNS9iaWRpcmVjdGlvbmFsX3Jubi9idy9idy93aGlsZS93aGlsZV9jb250ZXh0"}, "T": {"type": "DT_FLOAT"}, "is_constant": {"b": true}}}, {"op": "TensorArrayWriteV3", "name": "LSTM_9539a08e/bidirectional_rnn/bw/bw/while/TensorArrayWrite/TensorArrayWriteV3", "input": ["LSTM_9539a08e/bidirectional_rnn/bw/bw/while/TensorArrayWrite/TensorArrayWriteV3/Enter", "LSTM_9539a08e/bidirectional_rnn/bw/bw/while/Switch_1:1", "LSTM_9539a08e/bidirectional_rnn/bw/bw/while/bw/multi_rnn_cell/cell_0/lstm_cell/mul_2", "LSTM_9539a08e/bidirectional_rnn/bw/bw/while/Switch_2:1"], "attr": {"T": {"type": "DT_FLOAT"}}}, {"op": "NextIteration", "name": "LSTM_9539a08e/bidirectional_rnn/bw/bw/while/NextIteration_4", "input": ["LSTM_9539a08e/bidirectional_rnn/bw/bw/while/bw/multi_rnn_cell/cell_0/lstm_cell/mul_2"], "attr": {"T": {"type": "DT_FLOAT"}}}, {"op": "ConcatV2", "name": "concat_56", "input": ["Reshape_2", "Relu", "ExpandDims_30/dim"], "attr": {"N": {"i": "2"}, "T": {"type": "DT_FLOAT"}, "Tidx": {"type": "DT_INT32"}}}, {"op": "NextIteration", "name": "LSTM_9539a08e/bidirectional_rnn/fw/fw/while/NextIteration_2", "input": ["LSTM_9539a08e/bidirectional_rnn/fw/fw/while/TensorArrayWrite/TensorArrayWriteV3"], "attr": {"T": {"type": "DT_FLOAT"}}}, {"op": "ConcatV2", "name": "LSTM_24ab71e5/bidirectional_rnn/fw/fw/while/fw/multi_rnn_cell/cell_0/lstm_cell/concat", "input": ["LSTM_24ab71e5/bidirectional_rnn/fw/fw/while/TensorArrayReadV3", "LSTM_24ab71e5/bidirectional_rnn/fw/fw/while/Switch_4:1", "LSTM_24ab71e5/bidirectional_rnn/fw/fw/while/add/y"], "attr": {"N": {"i": "2"}, "T": {"type": "DT_FLOAT"}, "Tidx": {"type": "DT_INT32"}}}, {"op": "TensorArrayReadV3", "name": "LSTM_24ab71e5/bidirectional_rnn/bw/bw/while/TensorArrayReadV3", "input": ["LSTM_24ab71e5/bidirectional_rnn/bw/bw/while/TensorArrayReadV3/Enter", "LSTM_24ab71e5/bidirectional_rnn/bw/bw/while/Switch_1:1", "LSTM_24ab71e5/bidirectional_rnn/bw/bw/while/TensorArrayReadV3/Enter_1"], "attr": {"dtype": {"type": "DT_FLOAT"}}}, {"op": "NextIteration", "name": "LSTM_9539a08e/bidirectional_rnn/bw/bw/while/NextIteration_2", "input": ["LSTM_9539a08e/bidirectional_rnn/bw/bw/while/TensorArrayWrite/TensorArrayWriteV3"], "attr": {"T": {"type": "DT_FLOAT"}}}, {"device": "/device:CPU:0", "op": "MatMul", "name": "MatMul_1", "input": ["concat_56", "transpose_21"], "attr": {"T": {"type": "DT_FLOAT"}, "transpose_a": {"b": false}, "transpose_b": {"b": false}}}, {"device": "/device:CPU:0", "op": "_FusedMatMul", "name": "LSTM_24ab71e5/bidirectional_rnn/fw/fw/while/fw/multi_rnn_cell/cell_0/lstm_cell/BiasAdd", "input": ["LSTM_24ab71e5/bidirectional_rnn/fw/fw/while/fw/multi_rnn_cell/cell_0/lstm_cell/concat", "concat_45", "Add_3"], "attr": {"num_args": {"i": "1"}, "T": {"type": "DT_FLOAT"}, "transpose_a": {"b": false}, "transpose_b": {"b": false}, "fused_ops": {"list": {"s": ["Qmlhc0FkZA=="]}}, "epsilon": {"f": 0.0}}}, {"op": "ConcatV2", "name": "LSTM_24ab71e5/bidirectional_rnn/bw/bw/while/bw/multi_rnn_cell/cell_0/lstm_cell/concat", "input": ["LSTM_24ab71e5/bidirectional_rnn/bw/bw/while/TensorArrayReadV3", "LSTM_24ab71e5/bidirectional_rnn/bw/bw/while/Switch_4:1", "LSTM_24ab71e5/bidirectional_rnn/bw/bw/while/add/y"], "attr": {"N": {"i": "2"}, "T": {"type": "DT_FLOAT"}, "Tidx": {"type": "DT_INT32"}}}, {"op": "AddV2", "name": "add_7", "input": ["MatMul_1", "mul_7"], "attr": {"T": {"type": "DT_FLOAT"}}}, {"op": "Split", "name": "LSTM_24ab71e5/bidirectional_rnn/fw/fw/while/fw/multi_rnn_cell/cell_0/lstm_cell/split", "input": ["LSTM_24ab71e5/bidirectional_rnn/fw/fw/while/add/y", "LSTM_24ab71e5/bidirectional_rnn/fw/fw/while/fw/multi_rnn_cell/cell_0/lstm_cell/BiasAdd"], "attr": {"T": {"type": "DT_FLOAT"}, "num_split": {"i": "4"}}}, {"device": "/device:CPU:0", "op": "_FusedMatMul", "name": "LSTM_24ab71e5/bidirectional_rnn/bw/bw/while/bw/multi_rnn_cell/cell_0/lstm_cell/BiasAdd", "input": ["LSTM_24ab71e5/bidirectional_rnn/bw/bw/while/bw/multi_rnn_cell/cell_0/lstm_cell/concat", "concat_50", "Add_4"], "attr": {"num_args": {"i": "1"}, "T": {"type": "DT_FLOAT"}, "transpose_a": {"b": false}, "epsilon": {"f": 0.0}, "fused_ops": {"list": {"s": ["Qmlhc0FkZA=="]}}, "transpose_b": {"b": false}}}, {"op": "Relu", "name": "Relu_1", "input": ["add_7"], "attr": {"T": {"type": "DT_FLOAT"}}}, {"op": "Sigmoid", "name": "LSTM_24ab71e5/bidirectional_rnn/fw/fw/while/fw/multi_rnn_cell/cell_0/lstm_cell/Sigmoid_1", "input": ["LSTM_24ab71e5/bidirectional_rnn/fw/fw/while/fw/multi_rnn_cell/cell_0/lstm_cell/split"], "attr": {"T": {"type": "DT_FLOAT"}}}, {"op": "Tanh", "name": "LSTM_24ab71e5/bidirectional_rnn/fw/fw/while/fw/multi_rnn_cell/cell_0/lstm_cell/Tanh", "input": ["LSTM_24ab71e5/bidirectional_rnn/fw/fw/while/fw/multi_rnn_cell/cell_0/lstm_cell/split:1"], "attr": {"T": {"type": "DT_FLOAT"}}}, {"op": "Sigmoid", "name": "LSTM_24ab71e5/bidirectional_rnn/fw/fw/while/fw/multi_rnn_cell/cell_0/lstm_cell/Sigmoid", "input": ["LSTM_24ab71e5/bidirectional_rnn/fw/fw/while/fw/multi_rnn_cell/cell_0/lstm_cell/split:2"], "attr": {"T": {"type": "DT_FLOAT"}}}, {"op": "Sigmoid", "name": "LSTM_24ab71e5/bidirectional_rnn/fw/fw/while/fw/multi_rnn_cell/cell_0/lstm_cell/Sigmoid_2", "input": ["LSTM_24ab71e5/bidirectional_rnn/fw/fw/while/fw/multi_rnn_cell/cell_0/lstm_cell/split:3"], "attr": {"T": {"type": "DT_FLOAT"}}}, {"op": "Split", "name": "LSTM_24ab71e5/bidirectional_rnn/bw/bw/while/bw/multi_rnn_cell/cell_0/lstm_cell/split", "input": ["LSTM_24ab71e5/bidirectional_rnn/bw/bw/while/add/y", "LSTM_24ab71e5/bidirectional_rnn/bw/bw/while/bw/multi_rnn_cell/cell_0/lstm_cell/BiasAdd"], "attr": {"T": {"type": "DT_FLOAT"}, "num_split": {"i": "4"}}}, {"device": "/device:CPU:0", "op": "MatMul", "name": "MatMul_2", "input": ["Relu_1", "transpose_22"], "attr": {"T": {"type": "DT_FLOAT"}, "transpose_a": {"b": false}, "transpose_b": {"b": false}}}, {"op": "Mul", "name": "LSTM_24ab71e5/bidirectional_rnn/fw/fw/while/fw/multi_rnn_cell/cell_0/lstm_cell/mul_1", "input": ["LSTM_24ab71e5/bidirectional_rnn/fw/fw/while/fw/multi_rnn_cell/cell_0/lstm_cell/Sigmoid_1", "LSTM_24ab71e5/bidirectional_rnn/fw/fw/while/fw/multi_rnn_cell/cell_0/lstm_cell/Tanh"], "attr": {"T": {"type": "DT_FLOAT"}}}, {"op": "Mul", "name": "LSTM_24ab71e5/bidirectional_rnn/fw/fw/while/fw/multi_rnn_cell/cell_0/lstm_cell/mul", "input": ["LSTM_24ab71e5/bidirectional_rnn/fw/fw/while/Switch_3:1", "LSTM_24ab71e5/bidirectional_rnn/fw/fw/while/fw/multi_rnn_cell/cell_0/lstm_cell/Sigmoid"], "attr": {"T": {"type": "DT_FLOAT"}}}, {"op": "Sigmoid", "name": "LSTM_24ab71e5/bidirectional_rnn/bw/bw/while/bw/multi_rnn_cell/cell_0/lstm_cell/Sigmoid_1", "input": ["LSTM_24ab71e5/bidirectional_rnn/bw/bw/while/bw/multi_rnn_cell/cell_0/lstm_cell/split"], "attr": {"T": {"type": "DT_FLOAT"}}}, {"op": "Tanh", "name": "LSTM_24ab71e5/bidirectional_rnn/bw/bw/while/bw/multi_rnn_cell/cell_0/lstm_cell/Tanh", "input": ["LSTM_24ab71e5/bidirectional_rnn/bw/bw/while/bw/multi_rnn_cell/cell_0/lstm_cell/split:1"], "attr": {"T": {"type": "DT_FLOAT"}}}, {"op": "Sigmoid", "name": "LSTM_24ab71e5/bidirectional_rnn/bw/bw/while/bw/multi_rnn_cell/cell_0/lstm_cell/Sigmoid", "input": ["LSTM_24ab71e5/bidirectional_rnn/bw/bw/while/bw/multi_rnn_cell/cell_0/lstm_cell/split:2"], "attr": {"T": {"type": "DT_FLOAT"}}}, {"op": "Sigmoid", "name": "LSTM_24ab71e5/bidirectional_rnn/bw/bw/while/bw/multi_rnn_cell/cell_0/lstm_cell/Sigmoid_2", "input": ["LSTM_24ab71e5/bidirectional_rnn/bw/bw/while/bw/multi_rnn_cell/cell_0/lstm_cell/split:3"], "attr": {"T": {"type": "DT_FLOAT"}}}, {"op": "AddV2", "name": "myOutput", "input": ["MatMul_2", "mul_9"], "attr": {"T": {"type": "DT_FLOAT"}}}, {"op": "AddV2", "name": "LSTM_24ab71e5/bidirectional_rnn/fw/fw/while/fw/multi_rnn_cell/cell_0/lstm_cell/add_1", "input": ["LSTM_24ab71e5/bidirectional_rnn/fw/fw/while/fw/multi_rnn_cell/cell_0/lstm_cell/mul", "LSTM_24ab71e5/bidirectional_rnn/fw/fw/while/fw/multi_rnn_cell/cell_0/lstm_cell/mul_1"], "attr": {"T": {"type": "DT_FLOAT"}}}, {"op": "Mul", "name": "LSTM_24ab71e5/bidirectional_rnn/bw/bw/while/bw/multi_rnn_cell/cell_0/lstm_cell/mul_1", "input": ["LSTM_24ab71e5/bidirectional_rnn/bw/bw/while/bw/multi_rnn_cell/cell_0/lstm_cell/Sigmoid_1", "LSTM_24ab71e5/bidirectional_rnn/bw/bw/while/bw/multi_rnn_cell/cell_0/lstm_cell/Tanh"], "attr": {"T": {"type": "DT_FLOAT"}}}, {"op": "Mul", "name": "LSTM_24ab71e5/bidirectional_rnn/bw/bw/while/bw/multi_rnn_cell/cell_0/lstm_cell/mul", "input": ["LSTM_24ab71e5/bidirectional_rnn/bw/bw/while/Switch_3:1", "LSTM_24ab71e5/bidirectional_rnn/bw/bw/while/bw/multi_rnn_cell/cell_0/lstm_cell/Sigmoid"], "attr": {"T": {"type": "DT_FLOAT"}}}, {"op": "Tanh", "name": "LSTM_24ab71e5/bidirectional_rnn/fw/fw/while/fw/multi_rnn_cell/cell_0/lstm_cell/Tanh_1", "input": ["LSTM_24ab71e5/bidirectional_rnn/fw/fw/while/fw/multi_rnn_cell/cell_0/lstm_cell/add_1"], "attr": {"T": {"type": "DT_FLOAT"}}}, {"op": "NextIteration", "name": "LSTM_24ab71e5/bidirectional_rnn/fw/fw/while/NextIteration_3", "input": ["LSTM_24ab71e5/bidirectional_rnn/fw/fw/while/fw/multi_rnn_cell/cell_0/lstm_cell/add_1"], "attr": {"T": {"type": "DT_FLOAT"}}}, {"op": "AddV2", "name": "LSTM_24ab71e5/bidirectional_rnn/bw/bw/while/bw/multi_rnn_cell/cell_0/lstm_cell/add_1", "input": ["LSTM_24ab71e5/bidirectional_rnn/bw/bw/while/bw/multi_rnn_cell/cell_0/lstm_cell/mul", "LSTM_24ab71e5/bidirectional_rnn/bw/bw/while/bw/multi_rnn_cell/cell_0/lstm_cell/mul_1"], "attr": {"T": {"type": "DT_FLOAT"}}}, {"op": "Mul", "name": "LSTM_24ab71e5/bidirectional_rnn/fw/fw/while/fw/multi_rnn_cell/cell_0/lstm_cell/mul_2", "input": ["LSTM_24ab71e5/bidirectional_rnn/fw/fw/while/fw/multi_rnn_cell/cell_0/lstm_cell/Sigmoid_2", "LSTM_24ab71e5/bidirectional_rnn/fw/fw/while/fw/multi_rnn_cell/cell_0/lstm_cell/Tanh_1"], "attr": {"T": {"type": "DT_FLOAT"}}}, {"op": "Tanh", "name": "LSTM_24ab71e5/bidirectional_rnn/bw/bw/while/bw/multi_rnn_cell/cell_0/lstm_cell/Tanh_1", "input": ["LSTM_24ab71e5/bidirectional_rnn/bw/bw/while/bw/multi_rnn_cell/cell_0/lstm_cell/add_1"], "attr": {"T": {"type": "DT_FLOAT"}}}, {"op": "NextIteration", "name": "LSTM_24ab71e5/bidirectional_rnn/bw/bw/while/NextIteration_3", "input": ["LSTM_24ab71e5/bidirectional_rnn/bw/bw/while/bw/multi_rnn_cell/cell_0/lstm_cell/add_1"], "attr": {"T": {"type": "DT_FLOAT"}}}, {"op": "TensorArrayWriteV3", "name": "LSTM_24ab71e5/bidirectional_rnn/fw/fw/while/TensorArrayWrite/TensorArrayWriteV3", "input": ["LSTM_24ab71e5/bidirectional_rnn/fw/fw/while/TensorArrayWrite/TensorArrayWriteV3/Enter", "LSTM_24ab71e5/bidirectional_rnn/fw/fw/while/Switch_1:1", "LSTM_24ab71e5/bidirectional_rnn/fw/fw/while/fw/multi_rnn_cell/cell_0/lstm_cell/mul_2", "LSTM_24ab71e5/bidirectional_rnn/fw/fw/while/Switch_2:1"], "attr": {"T": {"type": "DT_FLOAT"}}}, {"op": "NextIteration", "name": "LSTM_24ab71e5/bidirectional_rnn/fw/fw/while/NextIteration_4", "input": ["LSTM_24ab71e5/bidirectional_rnn/fw/fw/while/fw/multi_rnn_cell/cell_0/lstm_cell/mul_2"], "attr": {"T": {"type": "DT_FLOAT"}}}, {"op": "Mul", "name": "LSTM_24ab71e5/bidirectional_rnn/bw/bw/while/bw/multi_rnn_cell/cell_0/lstm_cell/mul_2", "input": ["LSTM_24ab71e5/bidirectional_rnn/bw/bw/while/bw/multi_rnn_cell/cell_0/lstm_cell/Sigmoid_2", "LSTM_24ab71e5/bidirectional_rnn/bw/bw/while/bw/multi_rnn_cell/cell_0/lstm_cell/Tanh_1"], "attr": {"T": {"type": "DT_FLOAT"}}}, {"op": "NextIteration", "name": "LSTM_24ab71e5/bidirectional_rnn/fw/fw/while/NextIteration_2", "input": ["LSTM_24ab71e5/bidirectional_rnn/fw/fw/while/TensorArrayWrite/TensorArrayWriteV3"], "attr": {"T": {"type": "DT_FLOAT"}}}, {"op": "TensorArrayWriteV3", "name": "LSTM_24ab71e5/bidirectional_rnn/bw/bw/while/TensorArrayWrite/TensorArrayWriteV3", "input": ["LSTM_24ab71e5/bidirectional_rnn/bw/bw/while/TensorArrayWrite/TensorArrayWriteV3/Enter", "LSTM_24ab71e5/bidirectional_rnn/bw/bw/while/Switch_1:1", "LSTM_24ab71e5/bidirectional_rnn/bw/bw/while/bw/multi_rnn_cell/cell_0/lstm_cell/mul_2", "LSTM_24ab71e5/bidirectional_rnn/bw/bw/while/Switch_2:1"], "attr": {"T": {"type": "DT_FLOAT"}}}, {"op": "NextIteration", "name": "LSTM_24ab71e5/bidirectional_rnn/bw/bw/while/NextIteration_4", "input": ["LSTM_24ab71e5/bidirectional_rnn/bw/bw/while/bw/multi_rnn_cell/cell_0/lstm_cell/mul_2"], "attr": {"T": {"type": "DT_FLOAT"}}}, {"op": "NextIteration", "name": "LSTM_24ab71e5/bidirectional_rnn/bw/bw/while/NextIteration_2", "input": ["LSTM_24ab71e5/bidirectional_rnn/bw/bw/while/TensorArrayWrite/TensorArrayWriteV3"], "attr": {"T": {"type": "DT_FLOAT"}}}]}, "weightsManifest": [{"weights": [{"shape": [3], "name": "Const", "dtype": "int32"}, {"shape": [3], "name": "Const_1", "dtype": "int32"}, {"shape": [3], "name": "Const_5", "dtype": "int32"}, {"shape": [3], "name": "transpose/perm", "dtype": "int32"}, {"shape": [2, 128, 5], "name": "concat_10", "dtype": "float32"}, {"shape": [2, 128, 32], "name": "concat_11", "dtype": "float32"}, {"shape": [2, 256], "name": "concat_12", "dtype": "float32"}, {"shape": [1, 32], "name": "LSTM_9539a08e/strided_slice", "dtype": "float32"}, {"shape": [], "name": "LSTM_9539a08e/bidirectional_rnn/fw/fw/strided_slice", "dtype": "int32"}, {"shape": [], "name": "LSTM_9539a08e/bidirectional_rnn/fw/fw/time", "dtype": "int32"}, {"shape": [15], "name": "LSTM_9539a08e/bidirectional_rnn/fw/fw/TensorArrayUnstack/range", "dtype": "int32"}, {"shape": [128], "name": "mul_7", "dtype": "float32"}, {"shape": [1], "name": "LSTM_24ab71e5/ReverseV2/axis", "dtype": "int32"}, {"shape": [128, 6], "name": "transpose_22", "dtype": "float32"}, {"shape": [6], "name": "mul_9", "dtype": "float32"}, {"shape": [], "name": "ExpandDims_30/dim", "dtype": "int32"}, {"shape": [4], "name": "transpose_18/perm", "dtype": "int32"}, {"shape": [3], "name": "Const_158", "dtype": "int32"}, {"shape": [2], "name": "Squeeze_13", "dtype": "int32"}, {"shape": [2], "name": "GatherV2_5", "dtype": "int32"}, {"shape": [1], "name": "Cast_1", "dtype": "int32"}, {"shape": [], "name": "SparseToDense_1/default_value", "dtype": "int32"}, {"shape": [], "name": "Const_162", "dtype": "int32"}, {"shape": [2, 128, 64], "name": "concat_38", "dtype": "float32"}, {"shape": [2, 128, 32], "name": "concat_39", "dtype": "float32"}, {"shape": [2, 256], "name": "concat_40", "dtype": "float32"}, {"shape": [2], "name": "Const_163", "dtype": "int32"}, {"shape": [2], "name": "Const_164", "dtype": "int32"}, {"shape": [3, 32], "name": "transpose_20", "dtype": "float32"}, {"shape": [32], "name": "mul_5", "dtype": "float32"}, {"shape": [992, 128], "name": "transpose_21", "dtype": "float32"}, {"shape": [2], "name": "Reshape_2/shape", "dtype": "int32"}, {"shape": [], "name": "ConstantFolding/LSTM_9539a08e/bidirectional_rnn/fw/fw/strided_slice_enter", "dtype": "int32"}, {"shape": [], "name": "ConstantFolding/LSTM_9539a08e/bidirectional_rnn/fw/fw/Minimum_enter", "dtype": "int32"}, {"shape": [], "name": "ConstantFolding/LSTM_9539a08e/bidirectional_rnn/bw/bw/strided_slice_enter", "dtype": "int32"}, {"shape": [], "name": "ConstantFolding/LSTM_9539a08e/bidirectional_rnn/bw/bw/Minimum_enter", "dtype": "int32"}, {"shape": [], "name": "ConstantFolding/LSTM_24ab71e5/bidirectional_rnn/fw/fw/strided_slice_enter", "dtype": "int32"}, {"shape": [], "name": "ConstantFolding/LSTM_24ab71e5/bidirectional_rnn/fw/fw/Minimum_enter", "dtype": "int32"}, {"shape": [], "name": "ConstantFolding/LSTM_24ab71e5/bidirectional_rnn/bw/bw/strided_slice_enter", "dtype": "int32"}, {"shape": [], "name": "ConstantFolding/LSTM_24ab71e5/bidirectional_rnn/bw/bw/Minimum_enter", "dtype": "int32"}, {"shape": [15], "name": "LSTM_9539a08e/bidirectional_rnn/fw/fw/TensorArrayStack/range", "dtype": "int32"}, {"shape": [], "name": "LSTM_9539a08e/bidirectional_rnn/fw/fw/while/add/y", "dtype": "int32"}, {"shape": [37, 128], "name": "concat_17", "dtype": "float32"}, {"shape": [128], "name": "Add", "dtype": "float32"}, {"shape": [15], "name": "LSTM_9539a08e/bidirectional_rnn/bw/bw/TensorArrayStack/range", "dtype": "int32"}, {"shape": [], "name": "LSTM_9539a08e/bidirectional_rnn/bw/bw/while/add/y", "dtype": "int32"}, {"shape": [37, 128], "name": "concat_22", "dtype": "float32"}, {"shape": [128], "name": "Add_1", "dtype": "float32"}, {"shape": [15], "name": "LSTM_24ab71e5/bidirectional_rnn/fw/fw/TensorArrayStack/range", "dtype": "int32"}, {"shape": [], "name": "LSTM_24ab71e5/bidirectional_rnn/fw/fw/while/add/y", "dtype": "int32"}, {"shape": [96, 128], "name": "concat_45", "dtype": "float32"}, {"shape": [128], "name": "Add_3", "dtype": "float32"}, {"shape": [15], "name": "LSTM_24ab71e5/bidirectional_rnn/bw/bw/TensorArrayStack/range", "dtype": "int32"}, {"shape": [], "name": "LSTM_24ab71e5/bidirectional_rnn/bw/bw/while/add/y", "dtype": "int32"}, {"shape": [96, 128], "name": "concat_50", "dtype": "float32"}, {"shape": [128], "name": "Add_4", "dtype": "float32"}], "paths": ["group1-shard1of1.bin"]}], "userDefinedMetadata": {"signature": {"outputs": {"myOutput": {"name": "myOutput"}}}}, "format": "graph-model"}